module attributes {tf_saved_model.semantics} {
  func.func @main(%arg0: tensor<1024x1xf32> {iree.identifier = "serving_default_x:0", tf_saved_model.index_path = ["x"]}) -> (tensor<1024x1xf32> {iree.identifier = "StatefulPartitionedCall:0", tf_saved_model.index_path = ["output_0"]}) attributes {tf_saved_model.exported_names = ["serving_default"]} {
    %0 = "tosa.const"() {value = dense<"…"> : tensor<128x128xi8>} : () -> tensor<128x128xi8>
    %1 = "tosa.const"() {value = dense<0.165269271> : tensor<1xf32>} : () -> tensor<1xf32>
    %2 = "tosa.const"() {value = dense<"…"> : tensor<1x128xf32>} : () -> tensor<1x128xf32>
    %3 = "tosa.const"() {value = dense<"…"> : tensor<128xf32>} : () -> tensor<128xf32>
    %4 = "tosa.const"() {value = dense<"…"> : tensor<128xf32>} : () -> tensor<128xf32>
    %5 = "tosa.const"() {value = dense<"…"> : tensor<128x1xf32>} : () -> tensor<128x1xf32>
    %6 = "tosa.const"() {value = dense<0.000000e+00> : tensor<1x1xf32>} : () -> tensor<1x1xf32>
    %7 = "tosa.const"() {value = dense<0.0455456339> : tensor<1x1xf32>} : () -> tensor<1x1xf32>
    %8 = "tosa.fully_connected"(%arg0, %5, %4) : (tensor<1024x1xf32>, tensor<128x1xf32>, tensor<128xf32>) -> tensor<1024x128xf32>
    %9 = "tosa.clamp"(%8) {max_fp = 3.40282347E+38 : f32, max_int = 2147483647 : i64, min_fp = 0.000000e+00 : f32, min_int = 0 : i64} : (tensor<1024x128xf32>) -> tensor<1024x128xf32>
    %10 = "tosa.cast"(%0) : (tensor<128x128xi8>) -> tensor<128x128xf32>
    %11 = "tosa.sub"(%10, %6) : (tensor<128x128xf32>, tensor<1x1xf32>) -> tensor<128x128xf32>
    %12 = "tosa.mul"(%11, %7) {shift = 0 : i32} : (tensor<128x128xf32>, tensor<1x1xf32>) -> tensor<128x128xf32>
    %13 = "tosa.fully_connected"(%9, %12, %3) : (tensor<1024x128xf32>, tensor<128x128xf32>, tensor<128xf32>) -> tensor<1024x128xf32>
    %14 = "tosa.clamp"(%13) {max_fp = 3.40282347E+38 : f32, max_int = 2147483647 : i64, min_fp = 0.000000e+00 : f32, min_int = 0 : i64} : (tensor<1024x128xf32>) -> tensor<1024x128xf32>
    %15 = "tosa.fully_connected"(%14, %2, %1) : (tensor<1024x128xf32>, tensor<1x128xf32>, tensor<1xf32>) -> tensor<1024x1xf32>
    return %15 : tensor<1024x1xf32>
  }
}

