module @empi {
  ml_program.global private mutable @_params$0(dense<0.000000e+00> : tensor<10xf32>) : tensor<10xf32>
  ml_program.global private mutable @_params$1(dense<"…"> : tensor<64x10xf32>) : tensor<64x10xf32>
  ml_program.global private mutable @_params$2(dense<0.000000e+00> : tensor<10xf32>) : tensor<10xf32>
  ml_program.global private mutable @_params$3(dense<"…"> : tensor<64x10xf32>) : tensor<64x10xf32>
  ml_program.global private mutable @_params$4(dense<0.000000e+00> : tensor<5xf32>) : tensor<5xf32>
  ml_program.global private mutable @_params$5(dense<"…"> : tensor<64x5xf32>) : tensor<64x5xf32>
  ml_program.global private mutable @_params$6(dense<0.000000e+00> : tensor<64xf32>) : tensor<64xf32>
  ml_program.global private mutable @_params$7(dense<"…"> : tensor<64x64xf32>) : tensor<64x64xf32>
  ml_program.global private mutable @_params$8(dense<0.000000e+00> : tensor<64xf32>) : tensor<64xf32>
  ml_program.global private mutable @_params$9(dense<"…"> : tensor<64x64xf32>) : tensor<64x64xf32>
  ml_program.global private mutable @_params$10(dense<0.000000e+00> : tensor<64xf32>) : tensor<64xf32>
  ml_program.global private mutable @_params$11(dense<"…"> : tensor<64x64xf32>) : tensor<64x64xf32>
  ml_program.global private mutable @_params$12(dense<0.000000e+00> : tensor<64xf32>) : tensor<64xf32>
  ml_program.global private mutable @_params$13(dense<"…"> : tensor<64x64xf32>) : tensor<64x64xf32>
  ml_program.global private mutable @_params$14(dense<"…"> : tensor<2x64xf32>) : tensor<2x64xf32>
  ml_program.global private mutable @_params$15(dense<"…"> : tensor<2x64xf32>) : tensor<2x64xf32>
  ml_program.global private mutable @_params$16(dense<"…"> : tensor<2x64xf32>) : tensor<2x64xf32>
  ml_program.global private mutable @_params$17(dense<"…"> : tensor<2x64xf32>) : tensor<2x64xf32>
  ml_program.global private mutable @_params$18(dense<0.000000e+00> : tensor<64xf32>) : tensor<64xf32>
  ml_program.global private mutable @_params$19(dense<"…"> : tensor<64x64xf32>) : tensor<64x64xf32>
  ml_program.global private mutable @_params$20(dense<0.000000e+00> : tensor<64xf32>) : tensor<64xf32>
  ml_program.global private mutable @_params$21(dense<"…"> : tensor<64x64xf32>) : tensor<64x64xf32>
  ml_program.global private mutable @_params$22(dense<0.000000e+00> : tensor<64xf32>) : tensor<64xf32>
  ml_program.global private mutable @_params$23(dense<"…"> : tensor<64x64xf32>) : tensor<64x64xf32>
  ml_program.global private mutable @_params$24(dense<0.000000e+00> : tensor<64xf32>) : tensor<64xf32>
  ml_program.global private mutable @_params$25(dense<"…"> : tensor<64x64xf32>) : tensor<64x64xf32>
  ml_program.global private mutable @_params$26(dense<"…"> : tensor<64x64xf32>) : tensor<64x64xf32>
  ml_program.global private mutable @_params$27(dense<"…"> : tensor<64x64xf32>) : tensor<64x64xf32>
  ml_program.global private mutable @_params$28(dense<"…"> : tensor<64x64xf32>) : tensor<64x64xf32>
  ml_program.global private mutable @_params$29(dense<"…"> : tensor<64x64xf32>) : tensor<64x64xf32>
  ml_program.global private mutable @_cell_state$0(dense<1.000000e+00> : tensor<1x64xf32>) : tensor<1x64xf32>
  ml_program.global private mutable @_hidden_state$0(dense<1.000000e+00> : tensor<1x64xf32>) : tensor<1x64xf32>
  ml_program.global private mutable @_mus$0(dense<1.000000e+00> : tensor<1x10xf32>) : tensor<1x10xf32>
  ml_program.global private mutable @_sigmas$0(dense<1.000000e+00> : tensor<1x10xf32>) : tensor<1x10xf32>
  ml_program.global private mutable @_pis$0(dense<1.000000e+00> : tensor<1x5xf32>) : tensor<1x5xf32>
  func.func @run(%arg0: tensor<2xf32>) -> tensor<1x1x2xf32> {
    %0 = ml_program.global_load @_cell_state$0 : tensor<1x64xf32>
    %1 = ml_program.global_load @_hidden_state$0 : tensor<1x64xf32>
    %2 = call @jit__lstm.12$main(%0, %1, %arg0) : (tensor<1x64xf32>, tensor<1x64xf32>, tensor<2xf32>) -> tensor<1x1x2xf32>
    return %2 : tensor<1x1x2xf32>
  }
  func.func private @jit__lstm.12$main(%arg0: tensor<1x64xf32>, %arg1: tensor<1x64xf32>, %arg2: tensor<2xf32>) -> tensor<1x1x2xf32> {
    %0 = mhlo.constant dense<"…"> : tensor<64x64xf32>
    %1 = mhlo.constant dense<"…"> : tensor<64x64xf32>
    %2 = mhlo.constant dense<"…"> : tensor<64x64xf32>
    %3 = mhlo.constant dense<"…"> : tensor<64x64xf32>
    %4 = mhlo.constant dense<0.000000e+00> : tensor<64xf32>
    %5 = mhlo.constant dense<0.000000e+00> : tensor<64xf32>
    %6 = mhlo.constant dense<0.000000e+00> : tensor<64xf32>
    %7 = mhlo.constant dense<0.000000e+00> : tensor<64xf32>
    %8 = mhlo.constant dense<"…"> : tensor<2x64xf32>
    %9 = mhlo.constant dense<"…"> : tensor<2x64xf32>
    %10 = mhlo.constant dense<"…"> : tensor<2x64xf32>
    %11 = mhlo.constant dense<"…"> : tensor<2x64xf32>
    %12 = mhlo.constant dense<"…"> : tensor<64x64xf32>
    %13 = mhlo.constant dense<"…"> : tensor<64x64xf32>
    %14 = mhlo.constant dense<"…"> : tensor<64x64xf32>
    %15 = mhlo.constant dense<"…"> : tensor<64x64xf32>
    %16 = mhlo.constant dense<0.000000e+00> : tensor<64xf32>
    %17 = mhlo.constant dense<0.000000e+00> : tensor<64xf32>
    %18 = mhlo.constant dense<0.000000e+00> : tensor<64xf32>
    %19 = mhlo.constant dense<0.000000e+00> : tensor<64xf32>
    %20 = mhlo.constant dense<"…"> : tensor<64x64xf32>
    %21 = mhlo.constant dense<"…"> : tensor<64x64xf32>
    %22 = mhlo.constant dense<"…"> : tensor<64x64xf32>
    %23 = mhlo.constant dense<"…"> : tensor<64x64xf32>
    %24 = mhlo.constant dense<"…"> : tensor<64x10xf32>
    %25 = mhlo.constant dense<0.000000e+00> : tensor<10xf32>
    %26 = mhlo.constant dense<"…"> : tensor<64x10xf32>
    %27 = mhlo.constant dense<0.000000e+00> : tensor<10xf32>
    %28 = mhlo.constant dense<"…"> : tensor<64x5xf32>
    %29 = mhlo.constant dense<0.000000e+00> : tensor<5xf32>
    %30 = mhlo.constant dense<[3134548294, 3733159049]> : tensor<2xui32>
    %31 = mhlo.constant dense<[3746501087, 894150801]> : tensor<2xui32>
    %32 = "mhlo.concatenate"(%0, %1, %2, %3) {dimension = 1 : i64} : (tensor<64x64xf32>, tensor<64x64xf32>, tensor<64x64xf32>, tensor<64x64xf32>) -> tensor<64x256xf32>
    %33 = "mhlo.concatenate"(%4, %5, %6, %7) {dimension = 0 : i64} : (tensor<64xf32>, tensor<64xf32>, tensor<64xf32>, tensor<64xf32>) -> tensor<256xf32>
    %34 = "mhlo.dot_general"(%arg1, %32) {dot_dimension_numbers = #mhlo.dot<lhs_contracting_dimensions = [1], rhs_contracting_dimensions = [0]>, precision_config = [#mhlo<precision DEFAULT>, #mhlo<precision DEFAULT>]} : (tensor<1x64xf32>, tensor<64x256xf32>) -> tensor<1x256xf32>
    %35 = "mhlo.reshape"(%33) : (tensor<256xf32>) -> tensor<1x256xf32>
    %36 = mhlo.add %34, %35 : tensor<1x256xf32>
    %37 = "mhlo.slice"(%36) {limit_indices = dense<[1, 64]> : tensor<2xi64>, start_indices = dense<0> : tensor<2xi64>, strides = dense<1> : tensor<2xi64>} : (tensor<1x256xf32>) -> tensor<1x64xf32>
    %38 = "mhlo.slice"(%36) {limit_indices = dense<[1, 128]> : tensor<2xi64>, start_indices = dense<[0, 64]> : tensor<2xi64>, strides = dense<1> : tensor<2xi64>} : (tensor<1x256xf32>) -> tensor<1x64xf32>
    %39 = "mhlo.slice"(%36) {limit_indices = dense<[1, 192]> : tensor<2xi64>, start_indices = dense<[0, 128]> : tensor<2xi64>, strides = dense<1> : tensor<2xi64>} : (tensor<1x256xf32>) -> tensor<1x64xf32>
    %40 = "mhlo.slice"(%36) {limit_indices = dense<[1, 256]> : tensor<2xi64>, start_indices = dense<[0, 192]> : tensor<2xi64>, strides = dense<1> : tensor<2xi64>} : (tensor<1x256xf32>) -> tensor<1x64xf32>
    %41 = "mhlo.concatenate"(%8, %9, %10, %11) {dimension = 1 : i64} : (tensor<2x64xf32>, tensor<2x64xf32>, tensor<2x64xf32>, tensor<2x64xf32>) -> tensor<2x256xf32>
    %42 = "mhlo.dot_general"(%arg2, %41) {dot_dimension_numbers = #mhlo.dot<lhs_contracting_dimensions = [0], rhs_contracting_dimensions = [0]>, precision_config = [#mhlo<precision DEFAULT>, #mhlo<precision DEFAULT>]} : (tensor<2xf32>, tensor<2x256xf32>) -> tensor<256xf32>
    %43 = "mhlo.slice"(%42) {limit_indices = dense<64> : tensor<1xi64>, start_indices = dense<0> : tensor<1xi64>, strides = dense<1> : tensor<1xi64>} : (tensor<256xf32>) -> tensor<64xf32>
    %44 = "mhlo.slice"(%42) {limit_indices = dense<128> : tensor<1xi64>, start_indices = dense<64> : tensor<1xi64>, strides = dense<1> : tensor<1xi64>} : (tensor<256xf32>) -> tensor<64xf32>
    %45 = "mhlo.slice"(%42) {limit_indices = dense<192> : tensor<1xi64>, start_indices = dense<128> : tensor<1xi64>, strides = dense<1> : tensor<1xi64>} : (tensor<256xf32>) -> tensor<64xf32>
    %46 = "mhlo.slice"(%42) {limit_indices = dense<256> : tensor<1xi64>, start_indices = dense<192> : tensor<1xi64>, strides = dense<1> : tensor<1xi64>} : (tensor<256xf32>) -> tensor<64xf32>
    %47 = "mhlo.broadcast_in_dim"(%43) {broadcast_dimensions = dense<1> : tensor<1xi64>} : (tensor<64xf32>) -> tensor<1x64xf32>
    %48 = mhlo.add %37, %47 : tensor<1x64xf32>
    %49 = call @jit__lstm.12$sigmoid(%48) : (tensor<1x64xf32>) -> tensor<1x64xf32>
    %50 = "mhlo.broadcast_in_dim"(%44) {broadcast_dimensions = dense<1> : tensor<1xi64>} : (tensor<64xf32>) -> tensor<1x64xf32>
    %51 = mhlo.add %38, %50 : tensor<1x64xf32>
    %52 = call @jit__lstm.12$sigmoid_0(%51) : (tensor<1x64xf32>) -> tensor<1x64xf32>
    %53 = "mhlo.broadcast_in_dim"(%45) {broadcast_dimensions = dense<1> : tensor<1xi64>} : (tensor<64xf32>) -> tensor<1x64xf32>
    %54 = mhlo.add %39, %53 : tensor<1x64xf32>
    %55 = mhlo.tanh %54 : tensor<1x64xf32>
    %56 = "mhlo.broadcast_in_dim"(%46) {broadcast_dimensions = dense<1> : tensor<1xi64>} : (tensor<64xf32>) -> tensor<1x64xf32>
    %57 = mhlo.add %40, %56 : tensor<1x64xf32>
    %58 = call @jit__lstm.12$sigmoid_1(%57) : (tensor<1x64xf32>) -> tensor<1x64xf32>
    %59 = mhlo.multiply %52, %arg0 : tensor<1x64xf32>
    %60 = mhlo.multiply %49, %55 : tensor<1x64xf32>
    %61 = mhlo.add %59, %60 : tensor<1x64xf32>
    %62 = mhlo.tanh %61 : tensor<1x64xf32>
    %63 = mhlo.multiply %58, %62 : tensor<1x64xf32>
    %64 = "mhlo.concatenate"(%12, %13, %14, %15) {dimension = 1 : i64} : (tensor<64x64xf32>, tensor<64x64xf32>, tensor<64x64xf32>, tensor<64x64xf32>) -> tensor<64x256xf32>
    %65 = "mhlo.concatenate"(%16, %17, %18, %19) {dimension = 0 : i64} : (tensor<64xf32>, tensor<64xf32>, tensor<64xf32>, tensor<64xf32>) -> tensor<256xf32>
    %66 = "mhlo.dot_general"(%63, %64) {dot_dimension_numbers = #mhlo.dot<lhs_contracting_dimensions = [1], rhs_contracting_dimensions = [0]>, precision_config = [#mhlo<precision DEFAULT>, #mhlo<precision DEFAULT>]} : (tensor<1x64xf32>, tensor<64x256xf32>) -> tensor<1x256xf32>
    %67 = "mhlo.reshape"(%65) : (tensor<256xf32>) -> tensor<1x256xf32>
    %68 = mhlo.add %66, %67 : tensor<1x256xf32>
    %69 = "mhlo.slice"(%68) {limit_indices = dense<[1, 64]> : tensor<2xi64>, start_indices = dense<0> : tensor<2xi64>, strides = dense<1> : tensor<2xi64>} : (tensor<1x256xf32>) -> tensor<1x64xf32>
    %70 = "mhlo.slice"(%68) {limit_indices = dense<[1, 128]> : tensor<2xi64>, start_indices = dense<[0, 64]> : tensor<2xi64>, strides = dense<1> : tensor<2xi64>} : (tensor<1x256xf32>) -> tensor<1x64xf32>
    %71 = "mhlo.slice"(%68) {limit_indices = dense<[1, 192]> : tensor<2xi64>, start_indices = dense<[0, 128]> : tensor<2xi64>, strides = dense<1> : tensor<2xi64>} : (tensor<1x256xf32>) -> tensor<1x64xf32>
    %72 = "mhlo.slice"(%68) {limit_indices = dense<[1, 256]> : tensor<2xi64>, start_indices = dense<[0, 192]> : tensor<2xi64>, strides = dense<1> : tensor<2xi64>} : (tensor<1x256xf32>) -> tensor<1x64xf32>
    %73 = "mhlo.concatenate"(%20, %21, %22, %23) {dimension = 1 : i64} : (tensor<64x64xf32>, tensor<64x64xf32>, tensor<64x64xf32>, tensor<64x64xf32>) -> tensor<64x256xf32>
    %74 = "mhlo.dot_general"(%63, %73) {dot_dimension_numbers = #mhlo.dot<lhs_contracting_dimensions = [1], rhs_contracting_dimensions = [0]>, precision_config = [#mhlo<precision DEFAULT>, #mhlo<precision DEFAULT>]} : (tensor<1x64xf32>, tensor<64x256xf32>) -> tensor<1x256xf32>
    %75 = "mhlo.slice"(%74) {limit_indices = dense<[1, 64]> : tensor<2xi64>, start_indices = dense<0> : tensor<2xi64>, strides = dense<1> : tensor<2xi64>} : (tensor<1x256xf32>) -> tensor<1x64xf32>
    %76 = "mhlo.slice"(%74) {limit_indices = dense<[1, 128]> : tensor<2xi64>, start_indices = dense<[0, 64]> : tensor<2xi64>, strides = dense<1> : tensor<2xi64>} : (tensor<1x256xf32>) -> tensor<1x64xf32>
    %77 = "mhlo.slice"(%74) {limit_indices = dense<[1, 192]> : tensor<2xi64>, start_indices = dense<[0, 128]> : tensor<2xi64>, strides = dense<1> : tensor<2xi64>} : (tensor<1x256xf32>) -> tensor<1x64xf32>
    %78 = "mhlo.slice"(%74) {limit_indices = dense<[1, 256]> : tensor<2xi64>, start_indices = dense<[0, 192]> : tensor<2xi64>, strides = dense<1> : tensor<2xi64>} : (tensor<1x256xf32>) -> tensor<1x64xf32>
    %79 = mhlo.add %69, %75 : tensor<1x64xf32>
    %80 = call @jit__lstm.12$sigmoid_2(%79) : (tensor<1x64xf32>) -> tensor<1x64xf32>
    %81 = mhlo.add %70, %76 : tensor<1x64xf32>
    %82 = call @jit__lstm.12$sigmoid_3(%81) : (tensor<1x64xf32>) -> tensor<1x64xf32>
    %83 = mhlo.add %71, %77 : tensor<1x64xf32>
    %84 = mhlo.tanh %83 : tensor<1x64xf32>
    %85 = mhlo.add %72, %78 : tensor<1x64xf32>
    %86 = call @jit__lstm.12$sigmoid_4(%85) : (tensor<1x64xf32>) -> tensor<1x64xf32>
    %87 = mhlo.multiply %82, %61 : tensor<1x64xf32>
    %88 = mhlo.multiply %80, %84 : tensor<1x64xf32>
    %89 = mhlo.add %87, %88 : tensor<1x64xf32>
    %90 = mhlo.tanh %89 : tensor<1x64xf32>
    %91 = mhlo.multiply %86, %90 : tensor<1x64xf32>
    %92 = "mhlo.dot_general"(%91, %24) {dot_dimension_numbers = #mhlo.dot<lhs_contracting_dimensions = [1], rhs_contracting_dimensions = [0]>, precision_config = [#mhlo<precision DEFAULT>, #mhlo<precision DEFAULT>]} : (tensor<1x64xf32>, tensor<64x10xf32>) -> tensor<1x10xf32>
    %93 = "mhlo.reshape"(%25) : (tensor<10xf32>) -> tensor<1x10xf32>
    %94 = mhlo.add %92, %93 : tensor<1x10xf32>
    %95 = "mhlo.dot_general"(%91, %26) {dot_dimension_numbers = #mhlo.dot<lhs_contracting_dimensions = [1], rhs_contracting_dimensions = [0]>, precision_config = [#mhlo<precision DEFAULT>, #mhlo<precision DEFAULT>]} : (tensor<1x64xf32>, tensor<64x10xf32>) -> tensor<1x10xf32>
    %96 = "mhlo.reshape"(%27) : (tensor<10xf32>) -> tensor<1x10xf32>
    %97 = mhlo.add %95, %96 : tensor<1x10xf32>
    %98 = call @jit__lstm.12$elu(%97) : (tensor<1x10xf32>) -> tensor<1x10xf32>
    %99 = "mhlo.dot_general"(%91, %28) {dot_dimension_numbers = #mhlo.dot<lhs_contracting_dimensions = [1], rhs_contracting_dimensions = [0]>, precision_config = [#mhlo<precision DEFAULT>, #mhlo<precision DEFAULT>]} : (tensor<1x64xf32>, tensor<64x5xf32>) -> tensor<1x5xf32>
    %100 = "mhlo.reshape"(%29) : (tensor<5xf32>) -> tensor<1x5xf32>
    %101 = mhlo.add %99, %100 : tensor<1x5xf32>
    %102 = mhlo.constant dense<0xFF800000> : tensor<f32>
    %103 = mhlo.reduce(%101 init: %102) across dimensions = [1] : (tensor<1x5xf32>, tensor<f32>) -> tensor<1xf32>
     reducer(%arg3: tensor<f32>, %arg4: tensor<f32>)  {
      %1167 = mhlo.maximum %arg3, %arg4 : tensor<f32>
      "mhlo.return"(%1167) : (tensor<f32>) -> ()
    }
    %104 = "mhlo.broadcast_in_dim"(%103) {broadcast_dimensions = dense<0> : tensor<1xi64>} : (tensor<1xf32>) -> tensor<1x1xf32>
    %105 = "mhlo.broadcast_in_dim"(%104) {broadcast_dimensions = dense<[0, 1]> : tensor<2xi64>} : (tensor<1x1xf32>) -> tensor<1x5xf32>
    %106 = mhlo.subtract %101, %105 : tensor<1x5xf32>
    %107 = mhlo.exponential %106 : tensor<1x5xf32>
    %108 = mhlo.constant dense<0.000000e+00> : tensor<f32>
    %109 = mhlo.reduce(%107 init: %108) across dimensions = [1] : (tensor<1x5xf32>, tensor<f32>) -> tensor<1xf32>
     reducer(%arg3: tensor<f32>, %arg4: tensor<f32>)  {
      %1167 = mhlo.add %arg3, %arg4 : tensor<f32>
      "mhlo.return"(%1167) : (tensor<f32>) -> ()
    }
    %110 = "mhlo.broadcast_in_dim"(%109) {broadcast_dimensions = dense<0> : tensor<1xi64>} : (tensor<1xf32>) -> tensor<1x1xf32>
    %111 = "mhlo.broadcast_in_dim"(%110) {broadcast_dimensions = dense<[0, 1]> : tensor<2xi64>} : (tensor<1x1xf32>) -> tensor<1x5xf32>
    %112 = mhlo.divide %107, %111 : tensor<1x5xf32>
    %113 = mhlo.constant dense<2147483647> : tensor<i32>
    %114 = mhlo.constant dense<-2147483648> : tensor<i32>
    %115 = mhlo.constant dense<2147483647> : tensor<i32>
    %116 = call @jit__lstm.12$clip(%113, %114, %115) : (tensor<i32>, tensor<i32>, tensor<i32>) -> tensor<i32>
    %117 = mhlo.constant dense<1> : tensor<i32>
    %118 = "mhlo.compare"(%117, %116) {compare_type = #mhlo<comparison_type SIGNED>, comparison_direction = #mhlo<comparison_direction GT>} : (tensor<i32>, tensor<i32>) -> tensor<i1>
    %119 = mhlo.constant dense<0> : tensor<i32>
    %120 = mhlo.constant dense<-2147483648> : tensor<i32>
    %121 = mhlo.constant dense<2147483647> : tensor<i32>
    %122 = call @jit__lstm.12$clip_6(%119, %120, %121) : (tensor<i32>, tensor<i32>, tensor<i32>) -> tensor<i32>
    %123 = mhlo.convert %122 : tensor<i32>
    %124 = mhlo.constant dense<1> : tensor<i32>
    %125 = mhlo.constant dense<-2147483648> : tensor<i32>
    %126 = mhlo.constant dense<2147483647> : tensor<i32>
    %127 = call @jit__lstm.12$clip_7(%124, %125, %126) : (tensor<i32>, tensor<i32>, tensor<i32>) -> tensor<i32>
    %128 = mhlo.convert %127 : tensor<i32>
    %129 = "mhlo.iota"() {iota_dimension = 0 : i64} : () -> tensor<4xui32>
    %130 = "mhlo.slice"(%30) {limit_indices = dense<1> : tensor<1xi64>, start_indices = dense<0> : tensor<1xi64>, strides = dense<1> : tensor<1xi64>} : (tensor<2xui32>) -> tensor<1xui32>
    %131 = "mhlo.reshape"(%130) : (tensor<1xui32>) -> tensor<ui32>
    %132 = "mhlo.slice"(%30) {limit_indices = dense<2> : tensor<1xi64>, start_indices = dense<1> : tensor<1xi64>, strides = dense<1> : tensor<1xi64>} : (tensor<2xui32>) -> tensor<1xui32>
    %133 = "mhlo.reshape"(%132) : (tensor<1xui32>) -> tensor<ui32>
    %134 = "mhlo.slice"(%129) {limit_indices = dense<2> : tensor<1xi64>, start_indices = dense<0> : tensor<1xi64>, strides = dense<1> : tensor<1xi64>} : (tensor<4xui32>) -> tensor<2xui32>
    %135 = "mhlo.slice"(%129) {limit_indices = dense<4> : tensor<1xi64>, start_indices = dense<2> : tensor<1xi64>, strides = dense<1> : tensor<1xi64>} : (tensor<4xui32>) -> tensor<2xui32>
    %136 = mhlo.xor %131, %133 : tensor<ui32>
    %137 = mhlo.constant dense<466688986> : tensor<ui32>
    %138 = mhlo.xor %136, %137 : tensor<ui32>
    %139 = "mhlo.broadcast_in_dim"(%131) {broadcast_dimensions = dense<> : tensor<0xi64>} : (tensor<ui32>) -> tensor<2xui32>
    %140 = mhlo.add %134, %139 : tensor<2xui32>
    %141 = "mhlo.broadcast_in_dim"(%133) {broadcast_dimensions = dense<> : tensor<0xi64>} : (tensor<ui32>) -> tensor<2xui32>
    %142 = mhlo.add %135, %141 : tensor<2xui32>
    %143 = mhlo.add %140, %142 : tensor<2xui32>
    %144 = mhlo.constant dense<13> : tensor<ui32>
    %145 = "mhlo.broadcast_in_dim"(%144) {broadcast_dimensions = dense<> : tensor<0xi64>} : (tensor<ui32>) -> tensor<2xui32>
    %146 = mhlo.shift_left %142, %145 : tensor<2xui32>
    %147 = mhlo.constant dense<19> : tensor<ui32>
    %148 = "mhlo.broadcast_in_dim"(%147) {broadcast_dimensions = dense<> : tensor<0xi64>} : (tensor<ui32>) -> tensor<2xui32>
    %149 = mhlo.shift_right_logical %142, %148 : tensor<2xui32>
    %150 = mhlo.or %146, %149 : tensor<2xui32>
    %151 = mhlo.xor %143, %150 : tensor<2xui32>
    %152 = mhlo.add %143, %151 : tensor<2xui32>
    %153 = mhlo.constant dense<15> : tensor<ui32>
    %154 = "mhlo.broadcast_in_dim"(%153) {broadcast_dimensions = dense<> : tensor<0xi64>} : (tensor<ui32>) -> tensor<2xui32>
    %155 = mhlo.shift_left %151, %154 : tensor<2xui32>
    %156 = mhlo.constant dense<17> : tensor<ui32>
    %157 = "mhlo.broadcast_in_dim"(%156) {broadcast_dimensions = dense<> : tensor<0xi64>} : (tensor<ui32>) -> tensor<2xui32>
    %158 = mhlo.shift_right_logical %151, %157 : tensor<2xui32>
    %159 = mhlo.or %155, %158 : tensor<2xui32>
    %160 = mhlo.xor %152, %159 : tensor<2xui32>
    %161 = mhlo.add %152, %160 : tensor<2xui32>
    %162 = mhlo.constant dense<26> : tensor<ui32>
    %163 = "mhlo.broadcast_in_dim"(%162) {broadcast_dimensions = dense<> : tensor<0xi64>} : (tensor<ui32>) -> tensor<2xui32>
    %164 = mhlo.shift_left %160, %163 : tensor<2xui32>
    %165 = mhlo.constant dense<6> : tensor<ui32>
    %166 = "mhlo.broadcast_in_dim"(%165) {broadcast_dimensions = dense<> : tensor<0xi64>} : (tensor<ui32>) -> tensor<2xui32>
    %167 = mhlo.shift_right_logical %160, %166 : tensor<2xui32>
    %168 = mhlo.or %164, %167 : tensor<2xui32>
    %169 = mhlo.xor %161, %168 : tensor<2xui32>
    %170 = mhlo.add %161, %169 : tensor<2xui32>
    %171 = mhlo.constant dense<6> : tensor<ui32>
    %172 = "mhlo.broadcast_in_dim"(%171) {broadcast_dimensions = dense<> : tensor<0xi64>} : (tensor<ui32>) -> tensor<2xui32>
    %173 = mhlo.shift_left %169, %172 : tensor<2xui32>
    %174 = mhlo.constant dense<26> : tensor<ui32>
    %175 = "mhlo.broadcast_in_dim"(%174) {broadcast_dimensions = dense<> : tensor<0xi64>} : (tensor<ui32>) -> tensor<2xui32>
    %176 = mhlo.shift_right_logical %169, %175 : tensor<2xui32>
    %177 = mhlo.or %173, %176 : tensor<2xui32>
    %178 = mhlo.xor %170, %177 : tensor<2xui32>
    %179 = "mhlo.broadcast_in_dim"(%133) {broadcast_dimensions = dense<> : tensor<0xi64>} : (tensor<ui32>) -> tensor<2xui32>
    %180 = mhlo.add %170, %179 : tensor<2xui32>
    %181 = "mhlo.broadcast_in_dim"(%138) {broadcast_dimensions = dense<> : tensor<0xi64>} : (tensor<ui32>) -> tensor<2xui32>
    %182 = mhlo.add %178, %181 : tensor<2xui32>
    %183 = mhlo.constant dense<1> : tensor<ui32>
    %184 = "mhlo.broadcast_in_dim"(%183) {broadcast_dimensions = dense<> : tensor<0xi64>} : (tensor<ui32>) -> tensor<2xui32>
    %185 = mhlo.add %182, %184 : tensor<2xui32>
    %186 = mhlo.add %180, %185 : tensor<2xui32>
    %187 = mhlo.constant dense<17> : tensor<ui32>
    %188 = "mhlo.broadcast_in_dim"(%187) {broadcast_dimensions = dense<> : tensor<0xi64>} : (tensor<ui32>) -> tensor<2xui32>
    %189 = mhlo.shift_left %185, %188 : tensor<2xui32>
    %190 = mhlo.constant dense<15> : tensor<ui32>
    %191 = "mhlo.broadcast_in_dim"(%190) {broadcast_dimensions = dense<> : tensor<0xi64>} : (tensor<ui32>) -> tensor<2xui32>
    %192 = mhlo.shift_right_logical %185, %191 : tensor<2xui32>
    %193 = mhlo.or %189, %192 : tensor<2xui32>
    %194 = mhlo.xor %186, %193 : tensor<2xui32>
    %195 = mhlo.add %186, %194 : tensor<2xui32>
    %196 = mhlo.constant dense<29> : tensor<ui32>
    %197 = "mhlo.broadcast_in_dim"(%196) {broadcast_dimensions = dense<> : tensor<0xi64>} : (tensor<ui32>) -> tensor<2xui32>
    %198 = mhlo.shift_left %194, %197 : tensor<2xui32>
    %199 = mhlo.constant dense<3> : tensor<ui32>
    %200 = "mhlo.broadcast_in_dim"(%199) {broadcast_dimensions = dense<> : tensor<0xi64>} : (tensor<ui32>) -> tensor<2xui32>
    %201 = mhlo.shift_right_logical %194, %200 : tensor<2xui32>
    %202 = mhlo.or %198, %201 : tensor<2xui32>
    %203 = mhlo.xor %195, %202 : tensor<2xui32>
    %204 = mhlo.add %195, %203 : tensor<2xui32>
    %205 = mhlo.constant dense<16> : tensor<ui32>
    %206 = "mhlo.broadcast_in_dim"(%205) {broadcast_dimensions = dense<> : tensor<0xi64>} : (tensor<ui32>) -> tensor<2xui32>
    %207 = mhlo.shift_left %203, %206 : tensor<2xui32>
    %208 = mhlo.constant dense<16> : tensor<ui32>
    %209 = "mhlo.broadcast_in_dim"(%208) {broadcast_dimensions = dense<> : tensor<0xi64>} : (tensor<ui32>) -> tensor<2xui32>
    %210 = mhlo.shift_right_logical %203, %209 : tensor<2xui32>
    %211 = mhlo.or %207, %210 : tensor<2xui32>
    %212 = mhlo.xor %204, %211 : tensor<2xui32>
    %213 = mhlo.add %204, %212 : tensor<2xui32>
    %214 = mhlo.constant dense<24> : tensor<ui32>
    %215 = "mhlo.broadcast_in_dim"(%214) {broadcast_dimensions = dense<> : tensor<0xi64>} : (tensor<ui32>) -> tensor<2xui32>
    %216 = mhlo.shift_left %212, %215 : tensor<2xui32>
    %217 = mhlo.constant dense<8> : tensor<ui32>
    %218 = "mhlo.broadcast_in_dim"(%217) {broadcast_dimensions = dense<> : tensor<0xi64>} : (tensor<ui32>) -> tensor<2xui32>
    %219 = mhlo.shift_right_logical %212, %218 : tensor<2xui32>
    %220 = mhlo.or %216, %219 : tensor<2xui32>
    %221 = mhlo.xor %213, %220 : tensor<2xui32>
    %222 = "mhlo.broadcast_in_dim"(%138) {broadcast_dimensions = dense<> : tensor<0xi64>} : (tensor<ui32>) -> tensor<2xui32>
    %223 = mhlo.add %213, %222 : tensor<2xui32>
    %224 = "mhlo.broadcast_in_dim"(%131) {broadcast_dimensions = dense<> : tensor<0xi64>} : (tensor<ui32>) -> tensor<2xui32>
    %225 = mhlo.add %221, %224 : tensor<2xui32>
    %226 = mhlo.constant dense<2> : tensor<ui32>
    %227 = "mhlo.broadcast_in_dim"(%226) {broadcast_dimensions = dense<> : tensor<0xi64>} : (tensor<ui32>) -> tensor<2xui32>
    %228 = mhlo.add %225, %227 : tensor<2xui32>
    %229 = mhlo.add %223, %228 : tensor<2xui32>
    %230 = mhlo.constant dense<13> : tensor<ui32>
    %231 = "mhlo.broadcast_in_dim"(%230) {broadcast_dimensions = dense<> : tensor<0xi64>} : (tensor<ui32>) -> tensor<2xui32>
    %232 = mhlo.shift_left %228, %231 : tensor<2xui32>
    %233 = mhlo.constant dense<19> : tensor<ui32>
    %234 = "mhlo.broadcast_in_dim"(%233) {broadcast_dimensions = dense<> : tensor<0xi64>} : (tensor<ui32>) -> tensor<2xui32>
    %235 = mhlo.shift_right_logical %228, %234 : tensor<2xui32>
    %236 = mhlo.or %232, %235 : tensor<2xui32>
    %237 = mhlo.xor %229, %236 : tensor<2xui32>
    %238 = mhlo.add %229, %237 : tensor<2xui32>
    %239 = mhlo.constant dense<15> : tensor<ui32>
    %240 = "mhlo.broadcast_in_dim"(%239) {broadcast_dimensions = dense<> : tensor<0xi64>} : (tensor<ui32>) -> tensor<2xui32>
    %241 = mhlo.shift_left %237, %240 : tensor<2xui32>
    %242 = mhlo.constant dense<17> : tensor<ui32>
    %243 = "mhlo.broadcast_in_dim"(%242) {broadcast_dimensions = dense<> : tensor<0xi64>} : (tensor<ui32>) -> tensor<2xui32>
    %244 = mhlo.shift_right_logical %237, %243 : tensor<2xui32>
    %245 = mhlo.or %241, %244 : tensor<2xui32>
    %246 = mhlo.xor %238, %245 : tensor<2xui32>
    %247 = mhlo.add %238, %246 : tensor<2xui32>
    %248 = mhlo.constant dense<26> : tensor<ui32>
    %249 = "mhlo.broadcast_in_dim"(%248) {broadcast_dimensions = dense<> : tensor<0xi64>} : (tensor<ui32>) -> tensor<2xui32>
    %250 = mhlo.shift_left %246, %249 : tensor<2xui32>
    %251 = mhlo.constant dense<6> : tensor<ui32>
    %252 = "mhlo.broadcast_in_dim"(%251) {broadcast_dimensions = dense<> : tensor<0xi64>} : (tensor<ui32>) -> tensor<2xui32>
    %253 = mhlo.shift_right_logical %246, %252 : tensor<2xui32>
    %254 = mhlo.or %250, %253 : tensor<2xui32>
    %255 = mhlo.xor %247, %254 : tensor<2xui32>
    %256 = mhlo.add %247, %255 : tensor<2xui32>
    %257 = mhlo.constant dense<6> : tensor<ui32>
    %258 = "mhlo.broadcast_in_dim"(%257) {broadcast_dimensions = dense<> : tensor<0xi64>} : (tensor<ui32>) -> tensor<2xui32>
    %259 = mhlo.shift_left %255, %258 : tensor<2xui32>
    %260 = mhlo.constant dense<26> : tensor<ui32>
    %261 = "mhlo.broadcast_in_dim"(%260) {broadcast_dimensions = dense<> : tensor<0xi64>} : (tensor<ui32>) -> tensor<2xui32>
    %262 = mhlo.shift_right_logical %255, %261 : tensor<2xui32>
    %263 = mhlo.or %259, %262 : tensor<2xui32>
    %264 = mhlo.xor %256, %263 : tensor<2xui32>
    %265 = "mhlo.broadcast_in_dim"(%131) {broadcast_dimensions = dense<> : tensor<0xi64>} : (tensor<ui32>) -> tensor<2xui32>
    %266 = mhlo.add %256, %265 : tensor<2xui32>
    %267 = "mhlo.broadcast_in_dim"(%133) {broadcast_dimensions = dense<> : tensor<0xi64>} : (tensor<ui32>) -> tensor<2xui32>
    %268 = mhlo.add %264, %267 : tensor<2xui32>
    %269 = mhlo.constant dense<3> : tensor<ui32>
    %270 = "mhlo.broadcast_in_dim"(%269) {broadcast_dimensions = dense<> : tensor<0xi64>} : (tensor<ui32>) -> tensor<2xui32>
    %271 = mhlo.add %268, %270 : tensor<2xui32>
    %272 = mhlo.add %266, %271 : tensor<2xui32>
    %273 = mhlo.constant dense<17> : tensor<ui32>
    %274 = "mhlo.broadcast_in_dim"(%273) {broadcast_dimensions = dense<> : tensor<0xi64>} : (tensor<ui32>) -> tensor<2xui32>
    %275 = mhlo.shift_left %271, %274 : tensor<2xui32>
    %276 = mhlo.constant dense<15> : tensor<ui32>
    %277 = "mhlo.broadcast_in_dim"(%276) {broadcast_dimensions = dense<> : tensor<0xi64>} : (tensor<ui32>) -> tensor<2xui32>
    %278 = mhlo.shift_right_logical %271, %277 : tensor<2xui32>
    %279 = mhlo.or %275, %278 : tensor<2xui32>
    %280 = mhlo.xor %272, %279 : tensor<2xui32>
    %281 = mhlo.add %272, %280 : tensor<2xui32>
    %282 = mhlo.constant dense<29> : tensor<ui32>
    %283 = "mhlo.broadcast_in_dim"(%282) {broadcast_dimensions = dense<> : tensor<0xi64>} : (tensor<ui32>) -> tensor<2xui32>
    %284 = mhlo.shift_left %280, %283 : tensor<2xui32>
    %285 = mhlo.constant dense<3> : tensor<ui32>
    %286 = "mhlo.broadcast_in_dim"(%285) {broadcast_dimensions = dense<> : tensor<0xi64>} : (tensor<ui32>) -> tensor<2xui32>
    %287 = mhlo.shift_right_logical %280, %286 : tensor<2xui32>
    %288 = mhlo.or %284, %287 : tensor<2xui32>
    %289 = mhlo.xor %281, %288 : tensor<2xui32>
    %290 = mhlo.add %281, %289 : tensor<2xui32>
    %291 = mhlo.constant dense<16> : tensor<ui32>
    %292 = "mhlo.broadcast_in_dim"(%291) {broadcast_dimensions = dense<> : tensor<0xi64>} : (tensor<ui32>) -> tensor<2xui32>
    %293 = mhlo.shift_left %289, %292 : tensor<2xui32>
    %294 = mhlo.constant dense<16> : tensor<ui32>
    %295 = "mhlo.broadcast_in_dim"(%294) {broadcast_dimensions = dense<> : tensor<0xi64>} : (tensor<ui32>) -> tensor<2xui32>
    %296 = mhlo.shift_right_logical %289, %295 : tensor<2xui32>
    %297 = mhlo.or %293, %296 : tensor<2xui32>
    %298 = mhlo.xor %290, %297 : tensor<2xui32>
    %299 = mhlo.add %290, %298 : tensor<2xui32>
    %300 = mhlo.constant dense<24> : tensor<ui32>
    %301 = "mhlo.broadcast_in_dim"(%300) {broadcast_dimensions = dense<> : tensor<0xi64>} : (tensor<ui32>) -> tensor<2xui32>
    %302 = mhlo.shift_left %298, %301 : tensor<2xui32>
    %303 = mhlo.constant dense<8> : tensor<ui32>
    %304 = "mhlo.broadcast_in_dim"(%303) {broadcast_dimensions = dense<> : tensor<0xi64>} : (tensor<ui32>) -> tensor<2xui32>
    %305 = mhlo.shift_right_logical %298, %304 : tensor<2xui32>
    %306 = mhlo.or %302, %305 : tensor<2xui32>
    %307 = mhlo.xor %299, %306 : tensor<2xui32>
    %308 = "mhlo.broadcast_in_dim"(%133) {broadcast_dimensions = dense<> : tensor<0xi64>} : (tensor<ui32>) -> tensor<2xui32>
    %309 = mhlo.add %299, %308 : tensor<2xui32>
    %310 = "mhlo.broadcast_in_dim"(%138) {broadcast_dimensions = dense<> : tensor<0xi64>} : (tensor<ui32>) -> tensor<2xui32>
    %311 = mhlo.add %307, %310 : tensor<2xui32>
    %312 = mhlo.constant dense<4> : tensor<ui32>
    %313 = "mhlo.broadcast_in_dim"(%312) {broadcast_dimensions = dense<> : tensor<0xi64>} : (tensor<ui32>) -> tensor<2xui32>
    %314 = mhlo.add %311, %313 : tensor<2xui32>
    %315 = mhlo.add %309, %314 : tensor<2xui32>
    %316 = mhlo.constant dense<13> : tensor<ui32>
    %317 = "mhlo.broadcast_in_dim"(%316) {broadcast_dimensions = dense<> : tensor<0xi64>} : (tensor<ui32>) -> tensor<2xui32>
    %318 = mhlo.shift_left %314, %317 : tensor<2xui32>
    %319 = mhlo.constant dense<19> : tensor<ui32>
    %320 = "mhlo.broadcast_in_dim"(%319) {broadcast_dimensions = dense<> : tensor<0xi64>} : (tensor<ui32>) -> tensor<2xui32>
    %321 = mhlo.shift_right_logical %314, %320 : tensor<2xui32>
    %322 = mhlo.or %318, %321 : tensor<2xui32>
    %323 = mhlo.xor %315, %322 : tensor<2xui32>
    %324 = mhlo.add %315, %323 : tensor<2xui32>
    %325 = mhlo.constant dense<15> : tensor<ui32>
    %326 = "mhlo.broadcast_in_dim"(%325) {broadcast_dimensions = dense<> : tensor<0xi64>} : (tensor<ui32>) -> tensor<2xui32>
    %327 = mhlo.shift_left %323, %326 : tensor<2xui32>
    %328 = mhlo.constant dense<17> : tensor<ui32>
    %329 = "mhlo.broadcast_in_dim"(%328) {broadcast_dimensions = dense<> : tensor<0xi64>} : (tensor<ui32>) -> tensor<2xui32>
    %330 = mhlo.shift_right_logical %323, %329 : tensor<2xui32>
    %331 = mhlo.or %327, %330 : tensor<2xui32>
    %332 = mhlo.xor %324, %331 : tensor<2xui32>
    %333 = mhlo.add %324, %332 : tensor<2xui32>
    %334 = mhlo.constant dense<26> : tensor<ui32>
    %335 = "mhlo.broadcast_in_dim"(%334) {broadcast_dimensions = dense<> : tensor<0xi64>} : (tensor<ui32>) -> tensor<2xui32>
    %336 = mhlo.shift_left %332, %335 : tensor<2xui32>
    %337 = mhlo.constant dense<6> : tensor<ui32>
    %338 = "mhlo.broadcast_in_dim"(%337) {broadcast_dimensions = dense<> : tensor<0xi64>} : (tensor<ui32>) -> tensor<2xui32>
    %339 = mhlo.shift_right_logical %332, %338 : tensor<2xui32>
    %340 = mhlo.or %336, %339 : tensor<2xui32>
    %341 = mhlo.xor %333, %340 : tensor<2xui32>
    %342 = mhlo.add %333, %341 : tensor<2xui32>
    %343 = mhlo.constant dense<6> : tensor<ui32>
    %344 = "mhlo.broadcast_in_dim"(%343) {broadcast_dimensions = dense<> : tensor<0xi64>} : (tensor<ui32>) -> tensor<2xui32>
    %345 = mhlo.shift_left %341, %344 : tensor<2xui32>
    %346 = mhlo.constant dense<26> : tensor<ui32>
    %347 = "mhlo.broadcast_in_dim"(%346) {broadcast_dimensions = dense<> : tensor<0xi64>} : (tensor<ui32>) -> tensor<2xui32>
    %348 = mhlo.shift_right_logical %341, %347 : tensor<2xui32>
    %349 = mhlo.or %345, %348 : tensor<2xui32>
    %350 = mhlo.xor %342, %349 : tensor<2xui32>
    %351 = "mhlo.broadcast_in_dim"(%138) {broadcast_dimensions = dense<> : tensor<0xi64>} : (tensor<ui32>) -> tensor<2xui32>
    %352 = mhlo.add %342, %351 : tensor<2xui32>
    %353 = "mhlo.broadcast_in_dim"(%131) {broadcast_dimensions = dense<> : tensor<0xi64>} : (tensor<ui32>) -> tensor<2xui32>
    %354 = mhlo.add %350, %353 : tensor<2xui32>
    %355 = mhlo.constant dense<5> : tensor<ui32>
    %356 = "mhlo.broadcast_in_dim"(%355) {broadcast_dimensions = dense<> : tensor<0xi64>} : (tensor<ui32>) -> tensor<2xui32>
    %357 = mhlo.add %354, %356 : tensor<2xui32>
    %358 = "mhlo.concatenate"(%352, %357) {dimension = 0 : i64} : (tensor<2xui32>, tensor<2xui32>) -> tensor<4xui32>
    %359 = "mhlo.reshape"(%358) : (tensor<4xui32>) -> tensor<2x2xui32>
    %360 = "mhlo.slice"(%359) {limit_indices = dense<[1, 2]> : tensor<2xi64>, start_indices = dense<0> : tensor<2xi64>, strides = dense<1> : tensor<2xi64>} : (tensor<2x2xui32>) -> tensor<1x2xui32>
    %361 = "mhlo.reshape"(%360) : (tensor<1x2xui32>) -> tensor<2xui32>
    %362 = "mhlo.slice"(%359) {limit_indices = dense<2> : tensor<2xi64>, start_indices = dense<[1, 0]> : tensor<2xi64>, strides = dense<1> : tensor<2xi64>} : (tensor<2x2xui32>) -> tensor<1x2xui32>
    %363 = "mhlo.reshape"(%362) : (tensor<1x2xui32>) -> tensor<2xui32>
    %364 = mhlo.constant dense<0> : tensor<1xui32>
    %365 = "mhlo.iota"() {iota_dimension = 0 : i64} : () -> tensor<1xui32>
    %366 = "mhlo.slice"(%361) {limit_indices = dense<1> : tensor<1xi64>, start_indices = dense<0> : tensor<1xi64>, strides = dense<1> : tensor<1xi64>} : (tensor<2xui32>) -> tensor<1xui32>
    %367 = "mhlo.reshape"(%366) : (tensor<1xui32>) -> tensor<ui32>
    %368 = "mhlo.slice"(%361) {limit_indices = dense<2> : tensor<1xi64>, start_indices = dense<1> : tensor<1xi64>, strides = dense<1> : tensor<1xi64>} : (tensor<2xui32>) -> tensor<1xui32>
    %369 = "mhlo.reshape"(%368) : (tensor<1xui32>) -> tensor<ui32>
    %370 = "mhlo.concatenate"(%365, %364) {dimension = 0 : i64} : (tensor<1xui32>, tensor<1xui32>) -> tensor<2xui32>
    %371 = "mhlo.slice"(%370) {limit_indices = dense<1> : tensor<1xi64>, start_indices = dense<0> : tensor<1xi64>, strides = dense<1> : tensor<1xi64>} : (tensor<2xui32>) -> tensor<1xui32>
    %372 = "mhlo.slice"(%370) {limit_indices = dense<2> : tensor<1xi64>, start_indices = dense<1> : tensor<1xi64>, strides = dense<1> : tensor<1xi64>} : (tensor<2xui32>) -> tensor<1xui32>
    %373 = mhlo.xor %367, %369 : tensor<ui32>
    %374 = mhlo.constant dense<466688986> : tensor<ui32>
    %375 = mhlo.xor %373, %374 : tensor<ui32>
    %376 = "mhlo.broadcast_in_dim"(%367) {broadcast_dimensions = dense<> : tensor<0xi64>} : (tensor<ui32>) -> tensor<1xui32>
    %377 = mhlo.add %371, %376 : tensor<1xui32>
    %378 = "mhlo.broadcast_in_dim"(%369) {broadcast_dimensions = dense<> : tensor<0xi64>} : (tensor<ui32>) -> tensor<1xui32>
    %379 = mhlo.add %372, %378 : tensor<1xui32>
    %380 = mhlo.add %377, %379 : tensor<1xui32>
    %381 = mhlo.constant dense<13> : tensor<ui32>
    %382 = "mhlo.broadcast_in_dim"(%381) {broadcast_dimensions = dense<> : tensor<0xi64>} : (tensor<ui32>) -> tensor<1xui32>
    %383 = mhlo.shift_left %379, %382 : tensor<1xui32>
    %384 = mhlo.constant dense<19> : tensor<ui32>
    %385 = "mhlo.broadcast_in_dim"(%384) {broadcast_dimensions = dense<> : tensor<0xi64>} : (tensor<ui32>) -> tensor<1xui32>
    %386 = mhlo.shift_right_logical %379, %385 : tensor<1xui32>
    %387 = mhlo.or %383, %386 : tensor<1xui32>
    %388 = mhlo.xor %380, %387 : tensor<1xui32>
    %389 = mhlo.add %380, %388 : tensor<1xui32>
    %390 = mhlo.constant dense<15> : tensor<ui32>
    %391 = "mhlo.broadcast_in_dim"(%390) {broadcast_dimensions = dense<> : tensor<0xi64>} : (tensor<ui32>) -> tensor<1xui32>
    %392 = mhlo.shift_left %388, %391 : tensor<1xui32>
    %393 = mhlo.constant dense<17> : tensor<ui32>
    %394 = "mhlo.broadcast_in_dim"(%393) {broadcast_dimensions = dense<> : tensor<0xi64>} : (tensor<ui32>) -> tensor<1xui32>
    %395 = mhlo.shift_right_logical %388, %394 : tensor<1xui32>
    %396 = mhlo.or %392, %395 : tensor<1xui32>
    %397 = mhlo.xor %389, %396 : tensor<1xui32>
    %398 = mhlo.add %389, %397 : tensor<1xui32>
    %399 = mhlo.constant dense<26> : tensor<ui32>
    %400 = "mhlo.broadcast_in_dim"(%399) {broadcast_dimensions = dense<> : tensor<0xi64>} : (tensor<ui32>) -> tensor<1xui32>
    %401 = mhlo.shift_left %397, %400 : tensor<1xui32>
    %402 = mhlo.constant dense<6> : tensor<ui32>
    %403 = "mhlo.broadcast_in_dim"(%402) {broadcast_dimensions = dense<> : tensor<0xi64>} : (tensor<ui32>) -> tensor<1xui32>
    %404 = mhlo.shift_right_logical %397, %403 : tensor<1xui32>
    %405 = mhlo.or %401, %404 : tensor<1xui32>
    %406 = mhlo.xor %398, %405 : tensor<1xui32>
    %407 = mhlo.add %398, %406 : tensor<1xui32>
    %408 = mhlo.constant dense<6> : tensor<ui32>
    %409 = "mhlo.broadcast_in_dim"(%408) {broadcast_dimensions = dense<> : tensor<0xi64>} : (tensor<ui32>) -> tensor<1xui32>
    %410 = mhlo.shift_left %406, %409 : tensor<1xui32>
    %411 = mhlo.constant dense<26> : tensor<ui32>
    %412 = "mhlo.broadcast_in_dim"(%411) {broadcast_dimensions = dense<> : tensor<0xi64>} : (tensor<ui32>) -> tensor<1xui32>
    %413 = mhlo.shift_right_logical %406, %412 : tensor<1xui32>
    %414 = mhlo.or %410, %413 : tensor<1xui32>
    %415 = mhlo.xor %407, %414 : tensor<1xui32>
    %416 = "mhlo.broadcast_in_dim"(%369) {broadcast_dimensions = dense<> : tensor<0xi64>} : (tensor<ui32>) -> tensor<1xui32>
    %417 = mhlo.add %407, %416 : tensor<1xui32>
    %418 = "mhlo.broadcast_in_dim"(%375) {broadcast_dimensions = dense<> : tensor<0xi64>} : (tensor<ui32>) -> tensor<1xui32>
    %419 = mhlo.add %415, %418 : tensor<1xui32>
    %420 = mhlo.constant dense<1> : tensor<ui32>
    %421 = "mhlo.broadcast_in_dim"(%420) {broadcast_dimensions = dense<> : tensor<0xi64>} : (tensor<ui32>) -> tensor<1xui32>
    %422 = mhlo.add %419, %421 : tensor<1xui32>
    %423 = mhlo.add %417, %422 : tensor<1xui32>
    %424 = mhlo.constant dense<17> : tensor<ui32>
    %425 = "mhlo.broadcast_in_dim"(%424) {broadcast_dimensions = dense<> : tensor<0xi64>} : (tensor<ui32>) -> tensor<1xui32>
    %426 = mhlo.shift_left %422, %425 : tensor<1xui32>
    %427 = mhlo.constant dense<15> : tensor<ui32>
    %428 = "mhlo.broadcast_in_dim"(%427) {broadcast_dimensions = dense<> : tensor<0xi64>} : (tensor<ui32>) -> tensor<1xui32>
    %429 = mhlo.shift_right_logical %422, %428 : tensor<1xui32>
    %430 = mhlo.or %426, %429 : tensor<1xui32>
    %431 = mhlo.xor %423, %430 : tensor<1xui32>
    %432 = mhlo.add %423, %431 : tensor<1xui32>
    %433 = mhlo.constant dense<29> : tensor<ui32>
    %434 = "mhlo.broadcast_in_dim"(%433) {broadcast_dimensions = dense<> : tensor<0xi64>} : (tensor<ui32>) -> tensor<1xui32>
    %435 = mhlo.shift_left %431, %434 : tensor<1xui32>
    %436 = mhlo.constant dense<3> : tensor<ui32>
    %437 = "mhlo.broadcast_in_dim"(%436) {broadcast_dimensions = dense<> : tensor<0xi64>} : (tensor<ui32>) -> tensor<1xui32>
    %438 = mhlo.shift_right_logical %431, %437 : tensor<1xui32>
    %439 = mhlo.or %435, %438 : tensor<1xui32>
    %440 = mhlo.xor %432, %439 : tensor<1xui32>
    %441 = mhlo.add %432, %440 : tensor<1xui32>
    %442 = mhlo.constant dense<16> : tensor<ui32>
    %443 = "mhlo.broadcast_in_dim"(%442) {broadcast_dimensions = dense<> : tensor<0xi64>} : (tensor<ui32>) -> tensor<1xui32>
    %444 = mhlo.shift_left %440, %443 : tensor<1xui32>
    %445 = mhlo.constant dense<16> : tensor<ui32>
    %446 = "mhlo.broadcast_in_dim"(%445) {broadcast_dimensions = dense<> : tensor<0xi64>} : (tensor<ui32>) -> tensor<1xui32>
    %447 = mhlo.shift_right_logical %440, %446 : tensor<1xui32>
    %448 = mhlo.or %444, %447 : tensor<1xui32>
    %449 = mhlo.xor %441, %448 : tensor<1xui32>
    %450 = mhlo.add %441, %449 : tensor<1xui32>
    %451 = mhlo.constant dense<24> : tensor<ui32>
    %452 = "mhlo.broadcast_in_dim"(%451) {broadcast_dimensions = dense<> : tensor<0xi64>} : (tensor<ui32>) -> tensor<1xui32>
    %453 = mhlo.shift_left %449, %452 : tensor<1xui32>
    %454 = mhlo.constant dense<8> : tensor<ui32>
    %455 = "mhlo.broadcast_in_dim"(%454) {broadcast_dimensions = dense<> : tensor<0xi64>} : (tensor<ui32>) -> tensor<1xui32>
    %456 = mhlo.shift_right_logical %449, %455 : tensor<1xui32>
    %457 = mhlo.or %453, %456 : tensor<1xui32>
    %458 = mhlo.xor %450, %457 : tensor<1xui32>
    %459 = "mhlo.broadcast_in_dim"(%375) {broadcast_dimensions = dense<> : tensor<0xi64>} : (tensor<ui32>) -> tensor<1xui32>
    %460 = mhlo.add %450, %459 : tensor<1xui32>
    %461 = "mhlo.broadcast_in_dim"(%367) {broadcast_dimensions = dense<> : tensor<0xi64>} : (tensor<ui32>) -> tensor<1xui32>
    %462 = mhlo.add %458, %461 : tensor<1xui32>
    %463 = mhlo.constant dense<2> : tensor<ui32>
    %464 = "mhlo.broadcast_in_dim"(%463) {broadcast_dimensions = dense<> : tensor<0xi64>} : (tensor<ui32>) -> tensor<1xui32>
    %465 = mhlo.add %462, %464 : tensor<1xui32>
    %466 = mhlo.add %460, %465 : tensor<1xui32>
    %467 = mhlo.constant dense<13> : tensor<ui32>
    %468 = "mhlo.broadcast_in_dim"(%467) {broadcast_dimensions = dense<> : tensor<0xi64>} : (tensor<ui32>) -> tensor<1xui32>
    %469 = mhlo.shift_left %465, %468 : tensor<1xui32>
    %470 = mhlo.constant dense<19> : tensor<ui32>
    %471 = "mhlo.broadcast_in_dim"(%470) {broadcast_dimensions = dense<> : tensor<0xi64>} : (tensor<ui32>) -> tensor<1xui32>
    %472 = mhlo.shift_right_logical %465, %471 : tensor<1xui32>
    %473 = mhlo.or %469, %472 : tensor<1xui32>
    %474 = mhlo.xor %466, %473 : tensor<1xui32>
    %475 = mhlo.add %466, %474 : tensor<1xui32>
    %476 = mhlo.constant dense<15> : tensor<ui32>
    %477 = "mhlo.broadcast_in_dim"(%476) {broadcast_dimensions = dense<> : tensor<0xi64>} : (tensor<ui32>) -> tensor<1xui32>
    %478 = mhlo.shift_left %474, %477 : tensor<1xui32>
    %479 = mhlo.constant dense<17> : tensor<ui32>
    %480 = "mhlo.broadcast_in_dim"(%479) {broadcast_dimensions = dense<> : tensor<0xi64>} : (tensor<ui32>) -> tensor<1xui32>
    %481 = mhlo.shift_right_logical %474, %480 : tensor<1xui32>
    %482 = mhlo.or %478, %481 : tensor<1xui32>
    %483 = mhlo.xor %475, %482 : tensor<1xui32>
    %484 = mhlo.add %475, %483 : tensor<1xui32>
    %485 = mhlo.constant dense<26> : tensor<ui32>
    %486 = "mhlo.broadcast_in_dim"(%485) {broadcast_dimensions = dense<> : tensor<0xi64>} : (tensor<ui32>) -> tensor<1xui32>
    %487 = mhlo.shift_left %483, %486 : tensor<1xui32>
    %488 = mhlo.constant dense<6> : tensor<ui32>
    %489 = "mhlo.broadcast_in_dim"(%488) {broadcast_dimensions = dense<> : tensor<0xi64>} : (tensor<ui32>) -> tensor<1xui32>
    %490 = mhlo.shift_right_logical %483, %489 : tensor<1xui32>
    %491 = mhlo.or %487, %490 : tensor<1xui32>
    %492 = mhlo.xor %484, %491 : tensor<1xui32>
    %493 = mhlo.add %484, %492 : tensor<1xui32>
    %494 = mhlo.constant dense<6> : tensor<ui32>
    %495 = "mhlo.broadcast_in_dim"(%494) {broadcast_dimensions = dense<> : tensor<0xi64>} : (tensor<ui32>) -> tensor<1xui32>
    %496 = mhlo.shift_left %492, %495 : tensor<1xui32>
    %497 = mhlo.constant dense<26> : tensor<ui32>
    %498 = "mhlo.broadcast_in_dim"(%497) {broadcast_dimensions = dense<> : tensor<0xi64>} : (tensor<ui32>) -> tensor<1xui32>
    %499 = mhlo.shift_right_logical %492, %498 : tensor<1xui32>
    %500 = mhlo.or %496, %499 : tensor<1xui32>
    %501 = mhlo.xor %493, %500 : tensor<1xui32>
    %502 = "mhlo.broadcast_in_dim"(%367) {broadcast_dimensions = dense<> : tensor<0xi64>} : (tensor<ui32>) -> tensor<1xui32>
    %503 = mhlo.add %493, %502 : tensor<1xui32>
    %504 = "mhlo.broadcast_in_dim"(%369) {broadcast_dimensions = dense<> : tensor<0xi64>} : (tensor<ui32>) -> tensor<1xui32>
    %505 = mhlo.add %501, %504 : tensor<1xui32>
    %506 = mhlo.constant dense<3> : tensor<ui32>
    %507 = "mhlo.broadcast_in_dim"(%506) {broadcast_dimensions = dense<> : tensor<0xi64>} : (tensor<ui32>) -> tensor<1xui32>
    %508 = mhlo.add %505, %507 : tensor<1xui32>
    %509 = mhlo.add %503, %508 : tensor<1xui32>
    %510 = mhlo.constant dense<17> : tensor<ui32>
    %511 = "mhlo.broadcast_in_dim"(%510) {broadcast_dimensions = dense<> : tensor<0xi64>} : (tensor<ui32>) -> tensor<1xui32>
    %512 = mhlo.shift_left %508, %511 : tensor<1xui32>
    %513 = mhlo.constant dense<15> : tensor<ui32>
    %514 = "mhlo.broadcast_in_dim"(%513) {broadcast_dimensions = dense<> : tensor<0xi64>} : (tensor<ui32>) -> tensor<1xui32>
    %515 = mhlo.shift_right_logical %508, %514 : tensor<1xui32>
    %516 = mhlo.or %512, %515 : tensor<1xui32>
    %517 = mhlo.xor %509, %516 : tensor<1xui32>
    %518 = mhlo.add %509, %517 : tensor<1xui32>
    %519 = mhlo.constant dense<29> : tensor<ui32>
    %520 = "mhlo.broadcast_in_dim"(%519) {broadcast_dimensions = dense<> : tensor<0xi64>} : (tensor<ui32>) -> tensor<1xui32>
    %521 = mhlo.shift_left %517, %520 : tensor<1xui32>
    %522 = mhlo.constant dense<3> : tensor<ui32>
    %523 = "mhlo.broadcast_in_dim"(%522) {broadcast_dimensions = dense<> : tensor<0xi64>} : (tensor<ui32>) -> tensor<1xui32>
    %524 = mhlo.shift_right_logical %517, %523 : tensor<1xui32>
    %525 = mhlo.or %521, %524 : tensor<1xui32>
    %526 = mhlo.xor %518, %525 : tensor<1xui32>
    %527 = mhlo.add %518, %526 : tensor<1xui32>
    %528 = mhlo.constant dense<16> : tensor<ui32>
    %529 = "mhlo.broadcast_in_dim"(%528) {broadcast_dimensions = dense<> : tensor<0xi64>} : (tensor<ui32>) -> tensor<1xui32>
    %530 = mhlo.shift_left %526, %529 : tensor<1xui32>
    %531 = mhlo.constant dense<16> : tensor<ui32>
    %532 = "mhlo.broadcast_in_dim"(%531) {broadcast_dimensions = dense<> : tensor<0xi64>} : (tensor<ui32>) -> tensor<1xui32>
    %533 = mhlo.shift_right_logical %526, %532 : tensor<1xui32>
    %534 = mhlo.or %530, %533 : tensor<1xui32>
    %535 = mhlo.xor %527, %534 : tensor<1xui32>
    %536 = mhlo.add %527, %535 : tensor<1xui32>
    %537 = mhlo.constant dense<24> : tensor<ui32>
    %538 = "mhlo.broadcast_in_dim"(%537) {broadcast_dimensions = dense<> : tensor<0xi64>} : (tensor<ui32>) -> tensor<1xui32>
    %539 = mhlo.shift_left %535, %538 : tensor<1xui32>
    %540 = mhlo.constant dense<8> : tensor<ui32>
    %541 = "mhlo.broadcast_in_dim"(%540) {broadcast_dimensions = dense<> : tensor<0xi64>} : (tensor<ui32>) -> tensor<1xui32>
    %542 = mhlo.shift_right_logical %535, %541 : tensor<1xui32>
    %543 = mhlo.or %539, %542 : tensor<1xui32>
    %544 = mhlo.xor %536, %543 : tensor<1xui32>
    %545 = "mhlo.broadcast_in_dim"(%369) {broadcast_dimensions = dense<> : tensor<0xi64>} : (tensor<ui32>) -> tensor<1xui32>
    %546 = mhlo.add %536, %545 : tensor<1xui32>
    %547 = "mhlo.broadcast_in_dim"(%375) {broadcast_dimensions = dense<> : tensor<0xi64>} : (tensor<ui32>) -> tensor<1xui32>
    %548 = mhlo.add %544, %547 : tensor<1xui32>
    %549 = mhlo.constant dense<4> : tensor<ui32>
    %550 = "mhlo.broadcast_in_dim"(%549) {broadcast_dimensions = dense<> : tensor<0xi64>} : (tensor<ui32>) -> tensor<1xui32>
    %551 = mhlo.add %548, %550 : tensor<1xui32>
    %552 = mhlo.add %546, %551 : tensor<1xui32>
    %553 = mhlo.constant dense<13> : tensor<ui32>
    %554 = "mhlo.broadcast_in_dim"(%553) {broadcast_dimensions = dense<> : tensor<0xi64>} : (tensor<ui32>) -> tensor<1xui32>
    %555 = mhlo.shift_left %551, %554 : tensor<1xui32>
    %556 = mhlo.constant dense<19> : tensor<ui32>
    %557 = "mhlo.broadcast_in_dim"(%556) {broadcast_dimensions = dense<> : tensor<0xi64>} : (tensor<ui32>) -> tensor<1xui32>
    %558 = mhlo.shift_right_logical %551, %557 : tensor<1xui32>
    %559 = mhlo.or %555, %558 : tensor<1xui32>
    %560 = mhlo.xor %552, %559 : tensor<1xui32>
    %561 = mhlo.add %552, %560 : tensor<1xui32>
    %562 = mhlo.constant dense<15> : tensor<ui32>
    %563 = "mhlo.broadcast_in_dim"(%562) {broadcast_dimensions = dense<> : tensor<0xi64>} : (tensor<ui32>) -> tensor<1xui32>
    %564 = mhlo.shift_left %560, %563 : tensor<1xui32>
    %565 = mhlo.constant dense<17> : tensor<ui32>
    %566 = "mhlo.broadcast_in_dim"(%565) {broadcast_dimensions = dense<> : tensor<0xi64>} : (tensor<ui32>) -> tensor<1xui32>
    %567 = mhlo.shift_right_logical %560, %566 : tensor<1xui32>
    %568 = mhlo.or %564, %567 : tensor<1xui32>
    %569 = mhlo.xor %561, %568 : tensor<1xui32>
    %570 = mhlo.add %561, %569 : tensor<1xui32>
    %571 = mhlo.constant dense<26> : tensor<ui32>
    %572 = "mhlo.broadcast_in_dim"(%571) {broadcast_dimensions = dense<> : tensor<0xi64>} : (tensor<ui32>) -> tensor<1xui32>
    %573 = mhlo.shift_left %569, %572 : tensor<1xui32>
    %574 = mhlo.constant dense<6> : tensor<ui32>
    %575 = "mhlo.broadcast_in_dim"(%574) {broadcast_dimensions = dense<> : tensor<0xi64>} : (tensor<ui32>) -> tensor<1xui32>
    %576 = mhlo.shift_right_logical %569, %575 : tensor<1xui32>
    %577 = mhlo.or %573, %576 : tensor<1xui32>
    %578 = mhlo.xor %570, %577 : tensor<1xui32>
    %579 = mhlo.add %570, %578 : tensor<1xui32>
    %580 = mhlo.constant dense<6> : tensor<ui32>
    %581 = "mhlo.broadcast_in_dim"(%580) {broadcast_dimensions = dense<> : tensor<0xi64>} : (tensor<ui32>) -> tensor<1xui32>
    %582 = mhlo.shift_left %578, %581 : tensor<1xui32>
    %583 = mhlo.constant dense<26> : tensor<ui32>
    %584 = "mhlo.broadcast_in_dim"(%583) {broadcast_dimensions = dense<> : tensor<0xi64>} : (tensor<ui32>) -> tensor<1xui32>
    %585 = mhlo.shift_right_logical %578, %584 : tensor<1xui32>
    %586 = mhlo.or %582, %585 : tensor<1xui32>
    %587 = mhlo.xor %579, %586 : tensor<1xui32>
    %588 = "mhlo.broadcast_in_dim"(%375) {broadcast_dimensions = dense<> : tensor<0xi64>} : (tensor<ui32>) -> tensor<1xui32>
    %589 = mhlo.add %579, %588 : tensor<1xui32>
    %590 = "mhlo.broadcast_in_dim"(%367) {broadcast_dimensions = dense<> : tensor<0xi64>} : (tensor<ui32>) -> tensor<1xui32>
    %591 = mhlo.add %587, %590 : tensor<1xui32>
    %592 = mhlo.constant dense<5> : tensor<ui32>
    %593 = "mhlo.broadcast_in_dim"(%592) {broadcast_dimensions = dense<> : tensor<0xi64>} : (tensor<ui32>) -> tensor<1xui32>
    %594 = mhlo.add %591, %593 : tensor<1xui32>
    %595 = "mhlo.concatenate"(%589, %594) {dimension = 0 : i64} : (tensor<1xui32>, tensor<1xui32>) -> tensor<2xui32>
    %596 = mhlo.constant dense<0> : tensor<i32>
    %597 = "mhlo.broadcast_in_dim"(%596) {broadcast_dimensions = dense<> : tensor<0xi64>} : (tensor<i32>) -> tensor<1xi32>
    %598 = "mhlo.gather"(%595, %597) {dimension_numbers = #mhlo.gather<offset_dims = [0], start_index_map = [0]>, indices_are_sorted = true, slice_sizes = dense<1> : tensor<1xi64>} : (tensor<2xui32>, tensor<1xi32>) -> tensor<1xui32>
    %599 = "mhlo.reshape"(%598) : (tensor<1xui32>) -> tensor<ui32>
    %600 = mhlo.constant dense<0> : tensor<1xui32>
    %601 = "mhlo.iota"() {iota_dimension = 0 : i64} : () -> tensor<1xui32>
    %602 = "mhlo.slice"(%363) {limit_indices = dense<1> : tensor<1xi64>, start_indices = dense<0> : tensor<1xi64>, strides = dense<1> : tensor<1xi64>} : (tensor<2xui32>) -> tensor<1xui32>
    %603 = "mhlo.reshape"(%602) : (tensor<1xui32>) -> tensor<ui32>
    %604 = "mhlo.slice"(%363) {limit_indices = dense<2> : tensor<1xi64>, start_indices = dense<1> : tensor<1xi64>, strides = dense<1> : tensor<1xi64>} : (tensor<2xui32>) -> tensor<1xui32>
    %605 = "mhlo.reshape"(%604) : (tensor<1xui32>) -> tensor<ui32>
    %606 = "mhlo.concatenate"(%601, %600) {dimension = 0 : i64} : (tensor<1xui32>, tensor<1xui32>) -> tensor<2xui32>
    %607 = "mhlo.slice"(%606) {limit_indices = dense<1> : tensor<1xi64>, start_indices = dense<0> : tensor<1xi64>, strides = dense<1> : tensor<1xi64>} : (tensor<2xui32>) -> tensor<1xui32>
    %608 = "mhlo.slice"(%606) {limit_indices = dense<2> : tensor<1xi64>, start_indices = dense<1> : tensor<1xi64>, strides = dense<1> : tensor<1xi64>} : (tensor<2xui32>) -> tensor<1xui32>
    %609 = mhlo.xor %603, %605 : tensor<ui32>
    %610 = mhlo.constant dense<466688986> : tensor<ui32>
    %611 = mhlo.xor %609, %610 : tensor<ui32>
    %612 = "mhlo.broadcast_in_dim"(%603) {broadcast_dimensions = dense<> : tensor<0xi64>} : (tensor<ui32>) -> tensor<1xui32>
    %613 = mhlo.add %607, %612 : tensor<1xui32>
    %614 = "mhlo.broadcast_in_dim"(%605) {broadcast_dimensions = dense<> : tensor<0xi64>} : (tensor<ui32>) -> tensor<1xui32>
    %615 = mhlo.add %608, %614 : tensor<1xui32>
    %616 = mhlo.add %613, %615 : tensor<1xui32>
    %617 = mhlo.constant dense<13> : tensor<ui32>
    %618 = "mhlo.broadcast_in_dim"(%617) {broadcast_dimensions = dense<> : tensor<0xi64>} : (tensor<ui32>) -> tensor<1xui32>
    %619 = mhlo.shift_left %615, %618 : tensor<1xui32>
    %620 = mhlo.constant dense<19> : tensor<ui32>
    %621 = "mhlo.broadcast_in_dim"(%620) {broadcast_dimensions = dense<> : tensor<0xi64>} : (tensor<ui32>) -> tensor<1xui32>
    %622 = mhlo.shift_right_logical %615, %621 : tensor<1xui32>
    %623 = mhlo.or %619, %622 : tensor<1xui32>
    %624 = mhlo.xor %616, %623 : tensor<1xui32>
    %625 = mhlo.add %616, %624 : tensor<1xui32>
    %626 = mhlo.constant dense<15> : tensor<ui32>
    %627 = "mhlo.broadcast_in_dim"(%626) {broadcast_dimensions = dense<> : tensor<0xi64>} : (tensor<ui32>) -> tensor<1xui32>
    %628 = mhlo.shift_left %624, %627 : tensor<1xui32>
    %629 = mhlo.constant dense<17> : tensor<ui32>
    %630 = "mhlo.broadcast_in_dim"(%629) {broadcast_dimensions = dense<> : tensor<0xi64>} : (tensor<ui32>) -> tensor<1xui32>
    %631 = mhlo.shift_right_logical %624, %630 : tensor<1xui32>
    %632 = mhlo.or %628, %631 : tensor<1xui32>
    %633 = mhlo.xor %625, %632 : tensor<1xui32>
    %634 = mhlo.add %625, %633 : tensor<1xui32>
    %635 = mhlo.constant dense<26> : tensor<ui32>
    %636 = "mhlo.broadcast_in_dim"(%635) {broadcast_dimensions = dense<> : tensor<0xi64>} : (tensor<ui32>) -> tensor<1xui32>
    %637 = mhlo.shift_left %633, %636 : tensor<1xui32>
    %638 = mhlo.constant dense<6> : tensor<ui32>
    %639 = "mhlo.broadcast_in_dim"(%638) {broadcast_dimensions = dense<> : tensor<0xi64>} : (tensor<ui32>) -> tensor<1xui32>
    %640 = mhlo.shift_right_logical %633, %639 : tensor<1xui32>
    %641 = mhlo.or %637, %640 : tensor<1xui32>
    %642 = mhlo.xor %634, %641 : tensor<1xui32>
    %643 = mhlo.add %634, %642 : tensor<1xui32>
    %644 = mhlo.constant dense<6> : tensor<ui32>
    %645 = "mhlo.broadcast_in_dim"(%644) {broadcast_dimensions = dense<> : tensor<0xi64>} : (tensor<ui32>) -> tensor<1xui32>
    %646 = mhlo.shift_left %642, %645 : tensor<1xui32>
    %647 = mhlo.constant dense<26> : tensor<ui32>
    %648 = "mhlo.broadcast_in_dim"(%647) {broadcast_dimensions = dense<> : tensor<0xi64>} : (tensor<ui32>) -> tensor<1xui32>
    %649 = mhlo.shift_right_logical %642, %648 : tensor<1xui32>
    %650 = mhlo.or %646, %649 : tensor<1xui32>
    %651 = mhlo.xor %643, %650 : tensor<1xui32>
    %652 = "mhlo.broadcast_in_dim"(%605) {broadcast_dimensions = dense<> : tensor<0xi64>} : (tensor<ui32>) -> tensor<1xui32>
    %653 = mhlo.add %643, %652 : tensor<1xui32>
    %654 = "mhlo.broadcast_in_dim"(%611) {broadcast_dimensions = dense<> : tensor<0xi64>} : (tensor<ui32>) -> tensor<1xui32>
    %655 = mhlo.add %651, %654 : tensor<1xui32>
    %656 = mhlo.constant dense<1> : tensor<ui32>
    %657 = "mhlo.broadcast_in_dim"(%656) {broadcast_dimensions = dense<> : tensor<0xi64>} : (tensor<ui32>) -> tensor<1xui32>
    %658 = mhlo.add %655, %657 : tensor<1xui32>
    %659 = mhlo.add %653, %658 : tensor<1xui32>
    %660 = mhlo.constant dense<17> : tensor<ui32>
    %661 = "mhlo.broadcast_in_dim"(%660) {broadcast_dimensions = dense<> : tensor<0xi64>} : (tensor<ui32>) -> tensor<1xui32>
    %662 = mhlo.shift_left %658, %661 : tensor<1xui32>
    %663 = mhlo.constant dense<15> : tensor<ui32>
    %664 = "mhlo.broadcast_in_dim"(%663) {broadcast_dimensions = dense<> : tensor<0xi64>} : (tensor<ui32>) -> tensor<1xui32>
    %665 = mhlo.shift_right_logical %658, %664 : tensor<1xui32>
    %666 = mhlo.or %662, %665 : tensor<1xui32>
    %667 = mhlo.xor %659, %666 : tensor<1xui32>
    %668 = mhlo.add %659, %667 : tensor<1xui32>
    %669 = mhlo.constant dense<29> : tensor<ui32>
    %670 = "mhlo.broadcast_in_dim"(%669) {broadcast_dimensions = dense<> : tensor<0xi64>} : (tensor<ui32>) -> tensor<1xui32>
    %671 = mhlo.shift_left %667, %670 : tensor<1xui32>
    %672 = mhlo.constant dense<3> : tensor<ui32>
    %673 = "mhlo.broadcast_in_dim"(%672) {broadcast_dimensions = dense<> : tensor<0xi64>} : (tensor<ui32>) -> tensor<1xui32>
    %674 = mhlo.shift_right_logical %667, %673 : tensor<1xui32>
    %675 = mhlo.or %671, %674 : tensor<1xui32>
    %676 = mhlo.xor %668, %675 : tensor<1xui32>
    %677 = mhlo.add %668, %676 : tensor<1xui32>
    %678 = mhlo.constant dense<16> : tensor<ui32>
    %679 = "mhlo.broadcast_in_dim"(%678) {broadcast_dimensions = dense<> : tensor<0xi64>} : (tensor<ui32>) -> tensor<1xui32>
    %680 = mhlo.shift_left %676, %679 : tensor<1xui32>
    %681 = mhlo.constant dense<16> : tensor<ui32>
    %682 = "mhlo.broadcast_in_dim"(%681) {broadcast_dimensions = dense<> : tensor<0xi64>} : (tensor<ui32>) -> tensor<1xui32>
    %683 = mhlo.shift_right_logical %676, %682 : tensor<1xui32>
    %684 = mhlo.or %680, %683 : tensor<1xui32>
    %685 = mhlo.xor %677, %684 : tensor<1xui32>
    %686 = mhlo.add %677, %685 : tensor<1xui32>
    %687 = mhlo.constant dense<24> : tensor<ui32>
    %688 = "mhlo.broadcast_in_dim"(%687) {broadcast_dimensions = dense<> : tensor<0xi64>} : (tensor<ui32>) -> tensor<1xui32>
    %689 = mhlo.shift_left %685, %688 : tensor<1xui32>
    %690 = mhlo.constant dense<8> : tensor<ui32>
    %691 = "mhlo.broadcast_in_dim"(%690) {broadcast_dimensions = dense<> : tensor<0xi64>} : (tensor<ui32>) -> tensor<1xui32>
    %692 = mhlo.shift_right_logical %685, %691 : tensor<1xui32>
    %693 = mhlo.or %689, %692 : tensor<1xui32>
    %694 = mhlo.xor %686, %693 : tensor<1xui32>
    %695 = "mhlo.broadcast_in_dim"(%611) {broadcast_dimensions = dense<> : tensor<0xi64>} : (tensor<ui32>) -> tensor<1xui32>
    %696 = mhlo.add %686, %695 : tensor<1xui32>
    %697 = "mhlo.broadcast_in_dim"(%603) {broadcast_dimensions = dense<> : tensor<0xi64>} : (tensor<ui32>) -> tensor<1xui32>
    %698 = mhlo.add %694, %697 : tensor<1xui32>
    %699 = mhlo.constant dense<2> : tensor<ui32>
    %700 = "mhlo.broadcast_in_dim"(%699) {broadcast_dimensions = dense<> : tensor<0xi64>} : (tensor<ui32>) -> tensor<1xui32>
    %701 = mhlo.add %698, %700 : tensor<1xui32>
    %702 = mhlo.add %696, %701 : tensor<1xui32>
    %703 = mhlo.constant dense<13> : tensor<ui32>
    %704 = "mhlo.broadcast_in_dim"(%703) {broadcast_dimensions = dense<> : tensor<0xi64>} : (tensor<ui32>) -> tensor<1xui32>
    %705 = mhlo.shift_left %701, %704 : tensor<1xui32>
    %706 = mhlo.constant dense<19> : tensor<ui32>
    %707 = "mhlo.broadcast_in_dim"(%706) {broadcast_dimensions = dense<> : tensor<0xi64>} : (tensor<ui32>) -> tensor<1xui32>
    %708 = mhlo.shift_right_logical %701, %707 : tensor<1xui32>
    %709 = mhlo.or %705, %708 : tensor<1xui32>
    %710 = mhlo.xor %702, %709 : tensor<1xui32>
    %711 = mhlo.add %702, %710 : tensor<1xui32>
    %712 = mhlo.constant dense<15> : tensor<ui32>
    %713 = "mhlo.broadcast_in_dim"(%712) {broadcast_dimensions = dense<> : tensor<0xi64>} : (tensor<ui32>) -> tensor<1xui32>
    %714 = mhlo.shift_left %710, %713 : tensor<1xui32>
    %715 = mhlo.constant dense<17> : tensor<ui32>
    %716 = "mhlo.broadcast_in_dim"(%715) {broadcast_dimensions = dense<> : tensor<0xi64>} : (tensor<ui32>) -> tensor<1xui32>
    %717 = mhlo.shift_right_logical %710, %716 : tensor<1xui32>
    %718 = mhlo.or %714, %717 : tensor<1xui32>
    %719 = mhlo.xor %711, %718 : tensor<1xui32>
    %720 = mhlo.add %711, %719 : tensor<1xui32>
    %721 = mhlo.constant dense<26> : tensor<ui32>
    %722 = "mhlo.broadcast_in_dim"(%721) {broadcast_dimensions = dense<> : tensor<0xi64>} : (tensor<ui32>) -> tensor<1xui32>
    %723 = mhlo.shift_left %719, %722 : tensor<1xui32>
    %724 = mhlo.constant dense<6> : tensor<ui32>
    %725 = "mhlo.broadcast_in_dim"(%724) {broadcast_dimensions = dense<> : tensor<0xi64>} : (tensor<ui32>) -> tensor<1xui32>
    %726 = mhlo.shift_right_logical %719, %725 : tensor<1xui32>
    %727 = mhlo.or %723, %726 : tensor<1xui32>
    %728 = mhlo.xor %720, %727 : tensor<1xui32>
    %729 = mhlo.add %720, %728 : tensor<1xui32>
    %730 = mhlo.constant dense<6> : tensor<ui32>
    %731 = "mhlo.broadcast_in_dim"(%730) {broadcast_dimensions = dense<> : tensor<0xi64>} : (tensor<ui32>) -> tensor<1xui32>
    %732 = mhlo.shift_left %728, %731 : tensor<1xui32>
    %733 = mhlo.constant dense<26> : tensor<ui32>
    %734 = "mhlo.broadcast_in_dim"(%733) {broadcast_dimensions = dense<> : tensor<0xi64>} : (tensor<ui32>) -> tensor<1xui32>
    %735 = mhlo.shift_right_logical %728, %734 : tensor<1xui32>
    %736 = mhlo.or %732, %735 : tensor<1xui32>
    %737 = mhlo.xor %729, %736 : tensor<1xui32>
    %738 = "mhlo.broadcast_in_dim"(%603) {broadcast_dimensions = dense<> : tensor<0xi64>} : (tensor<ui32>) -> tensor<1xui32>
    %739 = mhlo.add %729, %738 : tensor<1xui32>
    %740 = "mhlo.broadcast_in_dim"(%605) {broadcast_dimensions = dense<> : tensor<0xi64>} : (tensor<ui32>) -> tensor<1xui32>
    %741 = mhlo.add %737, %740 : tensor<1xui32>
    %742 = mhlo.constant dense<3> : tensor<ui32>
    %743 = "mhlo.broadcast_in_dim"(%742) {broadcast_dimensions = dense<> : tensor<0xi64>} : (tensor<ui32>) -> tensor<1xui32>
    %744 = mhlo.add %741, %743 : tensor<1xui32>
    %745 = mhlo.add %739, %744 : tensor<1xui32>
    %746 = mhlo.constant dense<17> : tensor<ui32>
    %747 = "mhlo.broadcast_in_dim"(%746) {broadcast_dimensions = dense<> : tensor<0xi64>} : (tensor<ui32>) -> tensor<1xui32>
    %748 = mhlo.shift_left %744, %747 : tensor<1xui32>
    %749 = mhlo.constant dense<15> : tensor<ui32>
    %750 = "mhlo.broadcast_in_dim"(%749) {broadcast_dimensions = dense<> : tensor<0xi64>} : (tensor<ui32>) -> tensor<1xui32>
    %751 = mhlo.shift_right_logical %744, %750 : tensor<1xui32>
    %752 = mhlo.or %748, %751 : tensor<1xui32>
    %753 = mhlo.xor %745, %752 : tensor<1xui32>
    %754 = mhlo.add %745, %753 : tensor<1xui32>
    %755 = mhlo.constant dense<29> : tensor<ui32>
    %756 = "mhlo.broadcast_in_dim"(%755) {broadcast_dimensions = dense<> : tensor<0xi64>} : (tensor<ui32>) -> tensor<1xui32>
    %757 = mhlo.shift_left %753, %756 : tensor<1xui32>
    %758 = mhlo.constant dense<3> : tensor<ui32>
    %759 = "mhlo.broadcast_in_dim"(%758) {broadcast_dimensions = dense<> : tensor<0xi64>} : (tensor<ui32>) -> tensor<1xui32>
    %760 = mhlo.shift_right_logical %753, %759 : tensor<1xui32>
    %761 = mhlo.or %757, %760 : tensor<1xui32>
    %762 = mhlo.xor %754, %761 : tensor<1xui32>
    %763 = mhlo.add %754, %762 : tensor<1xui32>
    %764 = mhlo.constant dense<16> : tensor<ui32>
    %765 = "mhlo.broadcast_in_dim"(%764) {broadcast_dimensions = dense<> : tensor<0xi64>} : (tensor<ui32>) -> tensor<1xui32>
    %766 = mhlo.shift_left %762, %765 : tensor<1xui32>
    %767 = mhlo.constant dense<16> : tensor<ui32>
    %768 = "mhlo.broadcast_in_dim"(%767) {broadcast_dimensions = dense<> : tensor<0xi64>} : (tensor<ui32>) -> tensor<1xui32>
    %769 = mhlo.shift_right_logical %762, %768 : tensor<1xui32>
    %770 = mhlo.or %766, %769 : tensor<1xui32>
    %771 = mhlo.xor %763, %770 : tensor<1xui32>
    %772 = mhlo.add %763, %771 : tensor<1xui32>
    %773 = mhlo.constant dense<24> : tensor<ui32>
    %774 = "mhlo.broadcast_in_dim"(%773) {broadcast_dimensions = dense<> : tensor<0xi64>} : (tensor<ui32>) -> tensor<1xui32>
    %775 = mhlo.shift_left %771, %774 : tensor<1xui32>
    %776 = mhlo.constant dense<8> : tensor<ui32>
    %777 = "mhlo.broadcast_in_dim"(%776) {broadcast_dimensions = dense<> : tensor<0xi64>} : (tensor<ui32>) -> tensor<1xui32>
    %778 = mhlo.shift_right_logical %771, %777 : tensor<1xui32>
    %779 = mhlo.or %775, %778 : tensor<1xui32>
    %780 = mhlo.xor %772, %779 : tensor<1xui32>
    %781 = "mhlo.broadcast_in_dim"(%605) {broadcast_dimensions = dense<> : tensor<0xi64>} : (tensor<ui32>) -> tensor<1xui32>
    %782 = mhlo.add %772, %781 : tensor<1xui32>
    %783 = "mhlo.broadcast_in_dim"(%611) {broadcast_dimensions = dense<> : tensor<0xi64>} : (tensor<ui32>) -> tensor<1xui32>
    %784 = mhlo.add %780, %783 : tensor<1xui32>
    %785 = mhlo.constant dense<4> : tensor<ui32>
    %786 = "mhlo.broadcast_in_dim"(%785) {broadcast_dimensions = dense<> : tensor<0xi64>} : (tensor<ui32>) -> tensor<1xui32>
    %787 = mhlo.add %784, %786 : tensor<1xui32>
    %788 = mhlo.add %782, %787 : tensor<1xui32>
    %789 = mhlo.constant dense<13> : tensor<ui32>
    %790 = "mhlo.broadcast_in_dim"(%789) {broadcast_dimensions = dense<> : tensor<0xi64>} : (tensor<ui32>) -> tensor<1xui32>
    %791 = mhlo.shift_left %787, %790 : tensor<1xui32>
    %792 = mhlo.constant dense<19> : tensor<ui32>
    %793 = "mhlo.broadcast_in_dim"(%792) {broadcast_dimensions = dense<> : tensor<0xi64>} : (tensor<ui32>) -> tensor<1xui32>
    %794 = mhlo.shift_right_logical %787, %793 : tensor<1xui32>
    %795 = mhlo.or %791, %794 : tensor<1xui32>
    %796 = mhlo.xor %788, %795 : tensor<1xui32>
    %797 = mhlo.add %788, %796 : tensor<1xui32>
    %798 = mhlo.constant dense<15> : tensor<ui32>
    %799 = "mhlo.broadcast_in_dim"(%798) {broadcast_dimensions = dense<> : tensor<0xi64>} : (tensor<ui32>) -> tensor<1xui32>
    %800 = mhlo.shift_left %796, %799 : tensor<1xui32>
    %801 = mhlo.constant dense<17> : tensor<ui32>
    %802 = "mhlo.broadcast_in_dim"(%801) {broadcast_dimensions = dense<> : tensor<0xi64>} : (tensor<ui32>) -> tensor<1xui32>
    %803 = mhlo.shift_right_logical %796, %802 : tensor<1xui32>
    %804 = mhlo.or %800, %803 : tensor<1xui32>
    %805 = mhlo.xor %797, %804 : tensor<1xui32>
    %806 = mhlo.add %797, %805 : tensor<1xui32>
    %807 = mhlo.constant dense<26> : tensor<ui32>
    %808 = "mhlo.broadcast_in_dim"(%807) {broadcast_dimensions = dense<> : tensor<0xi64>} : (tensor<ui32>) -> tensor<1xui32>
    %809 = mhlo.shift_left %805, %808 : tensor<1xui32>
    %810 = mhlo.constant dense<6> : tensor<ui32>
    %811 = "mhlo.broadcast_in_dim"(%810) {broadcast_dimensions = dense<> : tensor<0xi64>} : (tensor<ui32>) -> tensor<1xui32>
    %812 = mhlo.shift_right_logical %805, %811 : tensor<1xui32>
    %813 = mhlo.or %809, %812 : tensor<1xui32>
    %814 = mhlo.xor %806, %813 : tensor<1xui32>
    %815 = mhlo.add %806, %814 : tensor<1xui32>
    %816 = mhlo.constant dense<6> : tensor<ui32>
    %817 = "mhlo.broadcast_in_dim"(%816) {broadcast_dimensions = dense<> : tensor<0xi64>} : (tensor<ui32>) -> tensor<1xui32>
    %818 = mhlo.shift_left %814, %817 : tensor<1xui32>
    %819 = mhlo.constant dense<26> : tensor<ui32>
    %820 = "mhlo.broadcast_in_dim"(%819) {broadcast_dimensions = dense<> : tensor<0xi64>} : (tensor<ui32>) -> tensor<1xui32>
    %821 = mhlo.shift_right_logical %814, %820 : tensor<1xui32>
    %822 = mhlo.or %818, %821 : tensor<1xui32>
    %823 = mhlo.xor %815, %822 : tensor<1xui32>
    %824 = "mhlo.broadcast_in_dim"(%611) {broadcast_dimensions = dense<> : tensor<0xi64>} : (tensor<ui32>) -> tensor<1xui32>
    %825 = mhlo.add %815, %824 : tensor<1xui32>
    %826 = "mhlo.broadcast_in_dim"(%603) {broadcast_dimensions = dense<> : tensor<0xi64>} : (tensor<ui32>) -> tensor<1xui32>
    %827 = mhlo.add %823, %826 : tensor<1xui32>
    %828 = mhlo.constant dense<5> : tensor<ui32>
    %829 = "mhlo.broadcast_in_dim"(%828) {broadcast_dimensions = dense<> : tensor<0xi64>} : (tensor<ui32>) -> tensor<1xui32>
    %830 = mhlo.add %827, %829 : tensor<1xui32>
    %831 = "mhlo.concatenate"(%825, %830) {dimension = 0 : i64} : (tensor<1xui32>, tensor<1xui32>) -> tensor<2xui32>
    %832 = mhlo.constant dense<0> : tensor<i32>
    %833 = "mhlo.broadcast_in_dim"(%832) {broadcast_dimensions = dense<> : tensor<0xi64>} : (tensor<i32>) -> tensor<1xi32>
    %834 = "mhlo.gather"(%831, %833) {dimension_numbers = #mhlo.gather<offset_dims = [0], start_index_map = [0]>, indices_are_sorted = true, slice_sizes = dense<1> : tensor<1xi64>} : (tensor<2xui32>, tensor<1xi32>) -> tensor<1xui32>
    %835 = "mhlo.reshape"(%834) : (tensor<1xui32>) -> tensor<ui32>
    %836 = mhlo.subtract %128, %123 : tensor<i32>
    %837 = mhlo.convert(%836) : (tensor<i32>) -> tensor<ui32>
    %838 = "mhlo.compare"(%128, %123) {compare_type = #mhlo<comparison_type SIGNED>, comparison_direction = #mhlo<comparison_direction LE>} : (tensor<i32>, tensor<i32>) -> tensor<i1>
    %839 = mhlo.constant dense<1> : tensor<ui32>
    %840 = "mhlo.select"(%838, %839, %837) : (tensor<i1>, tensor<ui32>, tensor<ui32>) -> tensor<ui32>
    %841 = "mhlo.compare"(%128, %123) {compare_type = #mhlo<comparison_type SIGNED>, comparison_direction = #mhlo<comparison_direction GT>} : (tensor<i32>, tensor<i32>) -> tensor<i1>
    %842 = mhlo.and %118, %841 : tensor<i1>
    %843 = mhlo.constant dense<1> : tensor<ui32>
    %844 = mhlo.add %840, %843 : tensor<ui32>
    %845 = "mhlo.select"(%842, %844, %840) : (tensor<i1>, tensor<ui32>, tensor<ui32>) -> tensor<ui32>
    %846 = mhlo.constant dense<65536> : tensor<ui32>
    %847 = mhlo.remainder %846, %845 : tensor<ui32>
    %848 = mhlo.multiply %847, %847 : tensor<ui32>
    %849 = mhlo.remainder %848, %845 : tensor<ui32>
    %850 = mhlo.remainder %599, %845 : tensor<ui32>
    %851 = mhlo.multiply %850, %849 : tensor<ui32>
    %852 = mhlo.remainder %835, %845 : tensor<ui32>
    %853 = mhlo.add %851, %852 : tensor<ui32>
    %854 = mhlo.remainder %853, %845 : tensor<ui32>
    %855 = mhlo.convert(%854) : (tensor<ui32>) -> tensor<i32>
    %856 = mhlo.add %123, %855 : tensor<i32>
    %857 = call @jit__lstm.12$_take(%112, %856) : (tensor<1x5xf32>, tensor<i32>) -> tensor<5xf32>
    %858 = mhlo.convert(%857) : (tensor<5xf32>) -> tensor<5xi32>
    %859 = "mhlo.slice"(%858) {limit_indices = dense<1> : tensor<1xi64>, start_indices = dense<0> : tensor<1xi64>, strides = dense<1> : tensor<1xi64>} : (tensor<5xi32>) -> tensor<1xi32>
    %860 = "mhlo.reshape"(%859) : (tensor<1xi32>) -> tensor<i32>
    %861 = mhlo.constant dense<2> : tensor<i32>
    %862 = mhlo.multiply %860, %861 : tensor<i32>
    %863 = mhlo.constant dense<0> : tensor<i32>
    %864 = mhlo.constant dense<0> : tensor<i32>
    %865 = "mhlo.compare"(%863, %864) {compare_type = #mhlo<comparison_type SIGNED>, comparison_direction = #mhlo<comparison_direction LT>} : (tensor<i32>, tensor<i32>) -> tensor<i1>
    %866 = mhlo.constant dense<0> : tensor<i32>
    %867 = mhlo.constant dense<1> : tensor<i32>
    %868 = mhlo.add %866, %867 : tensor<i32>
    %869 = mhlo.constant dense<0> : tensor<i32>
    %870 = "mhlo.select"(%865, %868, %869) : (tensor<i1>, tensor<i32>, tensor<i32>) -> tensor<i32>
    %871 = mhlo.constant dense<0> : tensor<i32>
    %872 = "mhlo.compare"(%862, %871) {compare_type = #mhlo<comparison_type SIGNED>, comparison_direction = #mhlo<comparison_direction LT>} : (tensor<i32>, tensor<i32>) -> tensor<i1>
    %873 = mhlo.constant dense<10> : tensor<i32>
    %874 = mhlo.add %862, %873 : tensor<i32>
    %875 = "mhlo.select"(%872, %874, %862) : (tensor<i1>, tensor<i32>, tensor<i32>) -> tensor<i32>
    %876 = "mhlo.dynamic_slice"(%94, %870, %875) {slice_sizes = dense<[1, 2]> : tensor<2xi64>} : (tensor<1x10xf32>, tensor<i32>, tensor<i32>) -> tensor<1x2xf32>
    %877 = mhlo.constant dense<2> : tensor<i32>
    %878 = mhlo.multiply %860, %877 : tensor<i32>
    %879 = mhlo.constant dense<0> : tensor<i32>
    %880 = mhlo.constant dense<0> : tensor<i32>
    %881 = "mhlo.compare"(%879, %880) {compare_type = #mhlo<comparison_type SIGNED>, comparison_direction = #mhlo<comparison_direction LT>} : (tensor<i32>, tensor<i32>) -> tensor<i1>
    %882 = mhlo.constant dense<0> : tensor<i32>
    %883 = mhlo.constant dense<1> : tensor<i32>
    %884 = mhlo.add %882, %883 : tensor<i32>
    %885 = mhlo.constant dense<0> : tensor<i32>
    %886 = "mhlo.select"(%881, %884, %885) : (tensor<i1>, tensor<i32>, tensor<i32>) -> tensor<i32>
    %887 = mhlo.constant dense<0> : tensor<i32>
    %888 = "mhlo.compare"(%878, %887) {compare_type = #mhlo<comparison_type SIGNED>, comparison_direction = #mhlo<comparison_direction LT>} : (tensor<i32>, tensor<i32>) -> tensor<i1>
    %889 = mhlo.constant dense<10> : tensor<i32>
    %890 = mhlo.add %878, %889 : tensor<i32>
    %891 = "mhlo.select"(%888, %890, %878) : (tensor<i1>, tensor<i32>, tensor<i32>) -> tensor<i32>
    %892 = "mhlo.dynamic_slice"(%98, %886, %891) {slice_sizes = dense<[1, 2]> : tensor<2xi64>} : (tensor<1x10xf32>, tensor<i32>, tensor<i32>) -> tensor<1x2xf32>
    %893 = "mhlo.iota"() {iota_dimension = 0 : i64} : () -> tensor<2x2xi32>
    %894 = mhlo.constant dense<0> : tensor<i32>
    %895 = "mhlo.broadcast_in_dim"(%894) {broadcast_dimensions = dense<> : tensor<0xi64>} : (tensor<i32>) -> tensor<2x2xi32>
    %896 = mhlo.add %893, %895 : tensor<2x2xi32>
    %897 = "mhlo.iota"() {iota_dimension = 1 : i64} : () -> tensor<2x2xi32>
    %898 = "mhlo.compare"(%896, %897) {compare_type = #mhlo<comparison_type SIGNED>, comparison_direction = #mhlo<comparison_direction EQ>} : (tensor<2x2xi32>, tensor<2x2xi32>) -> tensor<2x2xi1>
    %899 = mhlo.convert(%898) : (tensor<2x2xi1>) -> tensor<2x2xf32>
    %900 = "mhlo.broadcast_in_dim"(%892) {broadcast_dimensions = dense<[0, 1]> : tensor<2xi64>} : (tensor<1x2xf32>) -> tensor<2x2xf32>
    %901 = mhlo.multiply %899, %900 : tensor<2x2xf32>
    %902 = "mhlo.transpose"(%901) {permutation = dense<[1, 0]> : tensor<2xi64>} : (tensor<2x2xf32>) -> tensor<2x2xf32>
    %903 = "mhlo.dot_general"(%901, %902) {dot_dimension_numbers = #mhlo.dot<lhs_contracting_dimensions = [1], rhs_contracting_dimensions = [0]>, precision_config = [#mhlo<precision DEFAULT>, #mhlo<precision DEFAULT>]} : (tensor<2x2xf32>, tensor<2x2xf32>) -> tensor<2x2xf32>
    %904 = mhlo.constant dense<1.000000e+00> : tensor<f32>
    %905 = "mhlo.broadcast_in_dim"(%904) {broadcast_dimensions = dense<> : tensor<0xi64>} : (tensor<f32>) -> tensor<2x2xf32>
    %906 = mhlo.multiply %903, %905 : tensor<2x2xf32>
    %908 = mhlo.constant dense<-0.99999994> : tensor<f32>
    %909 = "mhlo.broadcast_in_dim"(%908) {broadcast_dimensions = dense<> : tensor<0xi64>} : (tensor<f32>) -> tensor<1x1x1xf32>
    %910 = mhlo.constant dense<1.000000e+00> : tensor<f32>
    %911 = "mhlo.broadcast_in_dim"(%910) {broadcast_dimensions = dense<> : tensor<0xi64>} : (tensor<f32>) -> tensor<1x1x1xf32>
    %912 = "mhlo.iota"() {iota_dimension = 0 : i64} : () -> tensor<2xui32>
    %913 = "mhlo.slice"(%31) {limit_indices = dense<1> : tensor<1xi64>, start_indices = dense<0> : tensor<1xi64>, strides = dense<1> : tensor<1xi64>} : (tensor<2xui32>) -> tensor<1xui32>
    %914 = "mhlo.reshape"(%913) : (tensor<1xui32>) -> tensor<ui32>
    %915 = "mhlo.slice"(%31) {limit_indices = dense<2> : tensor<1xi64>, start_indices = dense<1> : tensor<1xi64>, strides = dense<1> : tensor<1xi64>} : (tensor<2xui32>) -> tensor<1xui32>
    %916 = "mhlo.reshape"(%915) : (tensor<1xui32>) -> tensor<ui32>
    %917 = "mhlo.slice"(%912) {limit_indices = dense<1> : tensor<1xi64>, start_indices = dense<0> : tensor<1xi64>, strides = dense<1> : tensor<1xi64>} : (tensor<2xui32>) -> tensor<1xui32>
    %918 = "mhlo.slice"(%912) {limit_indices = dense<2> : tensor<1xi64>, start_indices = dense<1> : tensor<1xi64>, strides = dense<1> : tensor<1xi64>} : (tensor<2xui32>) -> tensor<1xui32>
    %919 = mhlo.xor %914, %916 : tensor<ui32>
    %920 = mhlo.constant dense<466688986> : tensor<ui32>
    %921 = mhlo.xor %919, %920 : tensor<ui32>
    %922 = "mhlo.broadcast_in_dim"(%914) {broadcast_dimensions = dense<> : tensor<0xi64>} : (tensor<ui32>) -> tensor<1xui32>
    %923 = mhlo.add %917, %922 : tensor<1xui32>
    %924 = "mhlo.broadcast_in_dim"(%916) {broadcast_dimensions = dense<> : tensor<0xi64>} : (tensor<ui32>) -> tensor<1xui32>
    %925 = mhlo.add %918, %924 : tensor<1xui32>
    %926 = mhlo.add %923, %925 : tensor<1xui32>
    %927 = mhlo.constant dense<13> : tensor<ui32>
    %928 = "mhlo.broadcast_in_dim"(%927) {broadcast_dimensions = dense<> : tensor<0xi64>} : (tensor<ui32>) -> tensor<1xui32>
    %929 = mhlo.shift_left %925, %928 : tensor<1xui32>
    %930 = mhlo.constant dense<19> : tensor<ui32>
    %931 = "mhlo.broadcast_in_dim"(%930) {broadcast_dimensions = dense<> : tensor<0xi64>} : (tensor<ui32>) -> tensor<1xui32>
    %932 = mhlo.shift_right_logical %925, %931 : tensor<1xui32>
    %933 = mhlo.or %929, %932 : tensor<1xui32>
    %934 = mhlo.xor %926, %933 : tensor<1xui32>
    %935 = mhlo.add %926, %934 : tensor<1xui32>
    %936 = mhlo.constant dense<15> : tensor<ui32>
    %937 = "mhlo.broadcast_in_dim"(%936) {broadcast_dimensions = dense<> : tensor<0xi64>} : (tensor<ui32>) -> tensor<1xui32>
    %938 = mhlo.shift_left %934, %937 : tensor<1xui32>
    %939 = mhlo.constant dense<17> : tensor<ui32>
    %940 = "mhlo.broadcast_in_dim"(%939) {broadcast_dimensions = dense<> : tensor<0xi64>} : (tensor<ui32>) -> tensor<1xui32>
    %941 = mhlo.shift_right_logical %934, %940 : tensor<1xui32>
    %942 = mhlo.or %938, %941 : tensor<1xui32>
    %943 = mhlo.xor %935, %942 : tensor<1xui32>
    %944 = mhlo.add %935, %943 : tensor<1xui32>
    %945 = mhlo.constant dense<26> : tensor<ui32>
    %946 = "mhlo.broadcast_in_dim"(%945) {broadcast_dimensions = dense<> : tensor<0xi64>} : (tensor<ui32>) -> tensor<1xui32>
    %947 = mhlo.shift_left %943, %946 : tensor<1xui32>
    %948 = mhlo.constant dense<6> : tensor<ui32>
    %949 = "mhlo.broadcast_in_dim"(%948) {broadcast_dimensions = dense<> : tensor<0xi64>} : (tensor<ui32>) -> tensor<1xui32>
    %950 = mhlo.shift_right_logical %943, %949 : tensor<1xui32>
    %951 = mhlo.or %947, %950 : tensor<1xui32>
    %952 = mhlo.xor %944, %951 : tensor<1xui32>
    %953 = mhlo.add %944, %952 : tensor<1xui32>
    %954 = mhlo.constant dense<6> : tensor<ui32>
    %955 = "mhlo.broadcast_in_dim"(%954) {broadcast_dimensions = dense<> : tensor<0xi64>} : (tensor<ui32>) -> tensor<1xui32>
    %956 = mhlo.shift_left %952, %955 : tensor<1xui32>
    %957 = mhlo.constant dense<26> : tensor<ui32>
    %958 = "mhlo.broadcast_in_dim"(%957) {broadcast_dimensions = dense<> : tensor<0xi64>} : (tensor<ui32>) -> tensor<1xui32>
    %959 = mhlo.shift_right_logical %952, %958 : tensor<1xui32>
    %960 = mhlo.or %956, %959 : tensor<1xui32>
    %961 = mhlo.xor %953, %960 : tensor<1xui32>
    %962 = "mhlo.broadcast_in_dim"(%916) {broadcast_dimensions = dense<> : tensor<0xi64>} : (tensor<ui32>) -> tensor<1xui32>
    %963 = mhlo.add %953, %962 : tensor<1xui32>
    %964 = "mhlo.broadcast_in_dim"(%921) {broadcast_dimensions = dense<> : tensor<0xi64>} : (tensor<ui32>) -> tensor<1xui32>
    %965 = mhlo.add %961, %964 : tensor<1xui32>
    %966 = mhlo.constant dense<1> : tensor<ui32>
    %967 = "mhlo.broadcast_in_dim"(%966) {broadcast_dimensions = dense<> : tensor<0xi64>} : (tensor<ui32>) -> tensor<1xui32>
    %968 = mhlo.add %965, %967 : tensor<1xui32>
    %969 = mhlo.add %963, %968 : tensor<1xui32>
    %970 = mhlo.constant dense<17> : tensor<ui32>
    %971 = "mhlo.broadcast_in_dim"(%970) {broadcast_dimensions = dense<> : tensor<0xi64>} : (tensor<ui32>) -> tensor<1xui32>
    %972 = mhlo.shift_left %968, %971 : tensor<1xui32>
    %973 = mhlo.constant dense<15> : tensor<ui32>
    %974 = "mhlo.broadcast_in_dim"(%973) {broadcast_dimensions = dense<> : tensor<0xi64>} : (tensor<ui32>) -> tensor<1xui32>
    %975 = mhlo.shift_right_logical %968, %974 : tensor<1xui32>
    %976 = mhlo.or %972, %975 : tensor<1xui32>
    %977 = mhlo.xor %969, %976 : tensor<1xui32>
    %978 = mhlo.add %969, %977 : tensor<1xui32>
    %979 = mhlo.constant dense<29> : tensor<ui32>
    %980 = "mhlo.broadcast_in_dim"(%979) {broadcast_dimensions = dense<> : tensor<0xi64>} : (tensor<ui32>) -> tensor<1xui32>
    %981 = mhlo.shift_left %977, %980 : tensor<1xui32>
    %982 = mhlo.constant dense<3> : tensor<ui32>
    %983 = "mhlo.broadcast_in_dim"(%982) {broadcast_dimensions = dense<> : tensor<0xi64>} : (tensor<ui32>) -> tensor<1xui32>
    %984 = mhlo.shift_right_logical %977, %983 : tensor<1xui32>
    %985 = mhlo.or %981, %984 : tensor<1xui32>
    %986 = mhlo.xor %978, %985 : tensor<1xui32>
    %987 = mhlo.add %978, %986 : tensor<1xui32>
    %988 = mhlo.constant dense<16> : tensor<ui32>
    %989 = "mhlo.broadcast_in_dim"(%988) {broadcast_dimensions = dense<> : tensor<0xi64>} : (tensor<ui32>) -> tensor<1xui32>
    %990 = mhlo.shift_left %986, %989 : tensor<1xui32>
    %991 = mhlo.constant dense<16> : tensor<ui32>
    %992 = "mhlo.broadcast_in_dim"(%991) {broadcast_dimensions = dense<> : tensor<0xi64>} : (tensor<ui32>) -> tensor<1xui32>
    %993 = mhlo.shift_right_logical %986, %992 : tensor<1xui32>
    %994 = mhlo.or %990, %993 : tensor<1xui32>
    %995 = mhlo.xor %987, %994 : tensor<1xui32>
    %996 = mhlo.add %987, %995 : tensor<1xui32>
    %997 = mhlo.constant dense<24> : tensor<ui32>
    %998 = "mhlo.broadcast_in_dim"(%997) {broadcast_dimensions = dense<> : tensor<0xi64>} : (tensor<ui32>) -> tensor<1xui32>
    %999 = mhlo.shift_left %995, %998 : tensor<1xui32>
    %1000 = mhlo.constant dense<8> : tensor<ui32>
    %1001 = "mhlo.broadcast_in_dim"(%1000) {broadcast_dimensions = dense<> : tensor<0xi64>} : (tensor<ui32>) -> tensor<1xui32>
    %1002 = mhlo.shift_right_logical %995, %1001 : tensor<1xui32>
    %1003 = mhlo.or %999, %1002 : tensor<1xui32>
    %1004 = mhlo.xor %996, %1003 : tensor<1xui32>
    %1005 = "mhlo.broadcast_in_dim"(%921) {broadcast_dimensions = dense<> : tensor<0xi64>} : (tensor<ui32>) -> tensor<1xui32>
    %1006 = mhlo.add %996, %1005 : tensor<1xui32>
    %1007 = "mhlo.broadcast_in_dim"(%914) {broadcast_dimensions = dense<> : tensor<0xi64>} : (tensor<ui32>) -> tensor<1xui32>
    %1008 = mhlo.add %1004, %1007 : tensor<1xui32>
    %1009 = mhlo.constant dense<2> : tensor<ui32>
    %1010 = "mhlo.broadcast_in_dim"(%1009) {broadcast_dimensions = dense<> : tensor<0xi64>} : (tensor<ui32>) -> tensor<1xui32>
    %1011 = mhlo.add %1008, %1010 : tensor<1xui32>
    %1012 = mhlo.add %1006, %1011 : tensor<1xui32>
    %1013 = mhlo.constant dense<13> : tensor<ui32>
    %1014 = "mhlo.broadcast_in_dim"(%1013) {broadcast_dimensions = dense<> : tensor<0xi64>} : (tensor<ui32>) -> tensor<1xui32>
    %1015 = mhlo.shift_left %1011, %1014 : tensor<1xui32>
    %1016 = mhlo.constant dense<19> : tensor<ui32>
    %1017 = "mhlo.broadcast_in_dim"(%1016) {broadcast_dimensions = dense<> : tensor<0xi64>} : (tensor<ui32>) -> tensor<1xui32>
    %1018 = mhlo.shift_right_logical %1011, %1017 : tensor<1xui32>
    %1019 = mhlo.or %1015, %1018 : tensor<1xui32>
    %1020 = mhlo.xor %1012, %1019 : tensor<1xui32>
    %1021 = mhlo.add %1012, %1020 : tensor<1xui32>
    %1022 = mhlo.constant dense<15> : tensor<ui32>
    %1023 = "mhlo.broadcast_in_dim"(%1022) {broadcast_dimensions = dense<> : tensor<0xi64>} : (tensor<ui32>) -> tensor<1xui32>
    %1024 = mhlo.shift_left %1020, %1023 : tensor<1xui32>
    %1025 = mhlo.constant dense<17> : tensor<ui32>
    %1026 = "mhlo.broadcast_in_dim"(%1025) {broadcast_dimensions = dense<> : tensor<0xi64>} : (tensor<ui32>) -> tensor<1xui32>
    %1027 = mhlo.shift_right_logical %1020, %1026 : tensor<1xui32>
    %1028 = mhlo.or %1024, %1027 : tensor<1xui32>
    %1029 = mhlo.xor %1021, %1028 : tensor<1xui32>
    %1030 = mhlo.add %1021, %1029 : tensor<1xui32>
    %1031 = mhlo.constant dense<26> : tensor<ui32>
    %1032 = "mhlo.broadcast_in_dim"(%1031) {broadcast_dimensions = dense<> : tensor<0xi64>} : (tensor<ui32>) -> tensor<1xui32>
    %1033 = mhlo.shift_left %1029, %1032 : tensor<1xui32>
    %1034 = mhlo.constant dense<6> : tensor<ui32>
    %1035 = "mhlo.broadcast_in_dim"(%1034) {broadcast_dimensions = dense<> : tensor<0xi64>} : (tensor<ui32>) -> tensor<1xui32>
    %1036 = mhlo.shift_right_logical %1029, %1035 : tensor<1xui32>
    %1037 = mhlo.or %1033, %1036 : tensor<1xui32>
    %1038 = mhlo.xor %1030, %1037 : tensor<1xui32>
    %1039 = mhlo.add %1030, %1038 : tensor<1xui32>
    %1040 = mhlo.constant dense<6> : tensor<ui32>
    %1041 = "mhlo.broadcast_in_dim"(%1040) {broadcast_dimensions = dense<> : tensor<0xi64>} : (tensor<ui32>) -> tensor<1xui32>
    %1042 = mhlo.shift_left %1038, %1041 : tensor<1xui32>
    %1043 = mhlo.constant dense<26> : tensor<ui32>
    %1044 = "mhlo.broadcast_in_dim"(%1043) {broadcast_dimensions = dense<> : tensor<0xi64>} : (tensor<ui32>) -> tensor<1xui32>
    %1045 = mhlo.shift_right_logical %1038, %1044 : tensor<1xui32>
    %1046 = mhlo.or %1042, %1045 : tensor<1xui32>
    %1047 = mhlo.xor %1039, %1046 : tensor<1xui32>
    %1048 = "mhlo.broadcast_in_dim"(%914) {broadcast_dimensions = dense<> : tensor<0xi64>} : (tensor<ui32>) -> tensor<1xui32>
    %1049 = mhlo.add %1039, %1048 : tensor<1xui32>
    %1050 = "mhlo.broadcast_in_dim"(%916) {broadcast_dimensions = dense<> : tensor<0xi64>} : (tensor<ui32>) -> tensor<1xui32>
    %1051 = mhlo.add %1047, %1050 : tensor<1xui32>
    %1052 = mhlo.constant dense<3> : tensor<ui32>
    %1053 = "mhlo.broadcast_in_dim"(%1052) {broadcast_dimensions = dense<> : tensor<0xi64>} : (tensor<ui32>) -> tensor<1xui32>
    %1054 = mhlo.add %1051, %1053 : tensor<1xui32>
    %1055 = mhlo.add %1049, %1054 : tensor<1xui32>
    %1056 = mhlo.constant dense<17> : tensor<ui32>
    %1057 = "mhlo.broadcast_in_dim"(%1056) {broadcast_dimensions = dense<> : tensor<0xi64>} : (tensor<ui32>) -> tensor<1xui32>
    %1058 = mhlo.shift_left %1054, %1057 : tensor<1xui32>
    %1059 = mhlo.constant dense<15> : tensor<ui32>
    %1060 = "mhlo.broadcast_in_dim"(%1059) {broadcast_dimensions = dense<> : tensor<0xi64>} : (tensor<ui32>) -> tensor<1xui32>
    %1061 = mhlo.shift_right_logical %1054, %1060 : tensor<1xui32>
    %1062 = mhlo.or %1058, %1061 : tensor<1xui32>
    %1063 = mhlo.xor %1055, %1062 : tensor<1xui32>
    %1064 = mhlo.add %1055, %1063 : tensor<1xui32>
    %1065 = mhlo.constant dense<29> : tensor<ui32>
    %1066 = "mhlo.broadcast_in_dim"(%1065) {broadcast_dimensions = dense<> : tensor<0xi64>} : (tensor<ui32>) -> tensor<1xui32>
    %1067 = mhlo.shift_left %1063, %1066 : tensor<1xui32>
    %1068 = mhlo.constant dense<3> : tensor<ui32>
    %1069 = "mhlo.broadcast_in_dim"(%1068) {broadcast_dimensions = dense<> : tensor<0xi64>} : (tensor<ui32>) -> tensor<1xui32>
    %1070 = mhlo.shift_right_logical %1063, %1069 : tensor<1xui32>
    %1071 = mhlo.or %1067, %1070 : tensor<1xui32>
    %1072 = mhlo.xor %1064, %1071 : tensor<1xui32>
    %1073 = mhlo.add %1064, %1072 : tensor<1xui32>
    %1074 = mhlo.constant dense<16> : tensor<ui32>
    %1075 = "mhlo.broadcast_in_dim"(%1074) {broadcast_dimensions = dense<> : tensor<0xi64>} : (tensor<ui32>) -> tensor<1xui32>
    %1076 = mhlo.shift_left %1072, %1075 : tensor<1xui32>
    %1077 = mhlo.constant dense<16> : tensor<ui32>
    %1078 = "mhlo.broadcast_in_dim"(%1077) {broadcast_dimensions = dense<> : tensor<0xi64>} : (tensor<ui32>) -> tensor<1xui32>
    %1079 = mhlo.shift_right_logical %1072, %1078 : tensor<1xui32>
    %1080 = mhlo.or %1076, %1079 : tensor<1xui32>
    %1081 = mhlo.xor %1073, %1080 : tensor<1xui32>
    %1082 = mhlo.add %1073, %1081 : tensor<1xui32>
    %1083 = mhlo.constant dense<24> : tensor<ui32>
    %1084 = "mhlo.broadcast_in_dim"(%1083) {broadcast_dimensions = dense<> : tensor<0xi64>} : (tensor<ui32>) -> tensor<1xui32>
    %1085 = mhlo.shift_left %1081, %1084 : tensor<1xui32>
    %1086 = mhlo.constant dense<8> : tensor<ui32>
    %1087 = "mhlo.broadcast_in_dim"(%1086) {broadcast_dimensions = dense<> : tensor<0xi64>} : (tensor<ui32>) -> tensor<1xui32>
    %1088 = mhlo.shift_right_logical %1081, %1087 : tensor<1xui32>
    %1089 = mhlo.or %1085, %1088 : tensor<1xui32>
    %1090 = mhlo.xor %1082, %1089 : tensor<1xui32>
    %1091 = "mhlo.broadcast_in_dim"(%916) {broadcast_dimensions = dense<> : tensor<0xi64>} : (tensor<ui32>) -> tensor<1xui32>
    %1092 = mhlo.add %1082, %1091 : tensor<1xui32>
    %1093 = "mhlo.broadcast_in_dim"(%921) {broadcast_dimensions = dense<> : tensor<0xi64>} : (tensor<ui32>) -> tensor<1xui32>
    %1094 = mhlo.add %1090, %1093 : tensor<1xui32>
    %1095 = mhlo.constant dense<4> : tensor<ui32>
    %1096 = "mhlo.broadcast_in_dim"(%1095) {broadcast_dimensions = dense<> : tensor<0xi64>} : (tensor<ui32>) -> tensor<1xui32>
    %1097 = mhlo.add %1094, %1096 : tensor<1xui32>
    %1098 = mhlo.add %1092, %1097 : tensor<1xui32>
    %1099 = mhlo.constant dense<13> : tensor<ui32>
    %1100 = "mhlo.broadcast_in_dim"(%1099) {broadcast_dimensions = dense<> : tensor<0xi64>} : (tensor<ui32>) -> tensor<1xui32>
    %1101 = mhlo.shift_left %1097, %1100 : tensor<1xui32>
    %1102 = mhlo.constant dense<19> : tensor<ui32>
    %1103 = "mhlo.broadcast_in_dim"(%1102) {broadcast_dimensions = dense<> : tensor<0xi64>} : (tensor<ui32>) -> tensor<1xui32>
    %1104 = mhlo.shift_right_logical %1097, %1103 : tensor<1xui32>
    %1105 = mhlo.or %1101, %1104 : tensor<1xui32>
    %1106 = mhlo.xor %1098, %1105 : tensor<1xui32>
    %1107 = mhlo.add %1098, %1106 : tensor<1xui32>
    %1108 = mhlo.constant dense<15> : tensor<ui32>
    %1109 = "mhlo.broadcast_in_dim"(%1108) {broadcast_dimensions = dense<> : tensor<0xi64>} : (tensor<ui32>) -> tensor<1xui32>
    %1110 = mhlo.shift_left %1106, %1109 : tensor<1xui32>
    %1111 = mhlo.constant dense<17> : tensor<ui32>
    %1112 = "mhlo.broadcast_in_dim"(%1111) {broadcast_dimensions = dense<> : tensor<0xi64>} : (tensor<ui32>) -> tensor<1xui32>
    %1113 = mhlo.shift_right_logical %1106, %1112 : tensor<1xui32>
    %1114 = mhlo.or %1110, %1113 : tensor<1xui32>
    %1115 = mhlo.xor %1107, %1114 : tensor<1xui32>
    %1116 = mhlo.add %1107, %1115 : tensor<1xui32>
    %1117 = mhlo.constant dense<26> : tensor<ui32>
    %1118 = "mhlo.broadcast_in_dim"(%1117) {broadcast_dimensions = dense<> : tensor<0xi64>} : (tensor<ui32>) -> tensor<1xui32>
    %1119 = mhlo.shift_left %1115, %1118 : tensor<1xui32>
    %1120 = mhlo.constant dense<6> : tensor<ui32>
    %1121 = "mhlo.broadcast_in_dim"(%1120) {broadcast_dimensions = dense<> : tensor<0xi64>} : (tensor<ui32>) -> tensor<1xui32>
    %1122 = mhlo.shift_right_logical %1115, %1121 : tensor<1xui32>
    %1123 = mhlo.or %1119, %1122 : tensor<1xui32>
    %1124 = mhlo.xor %1116, %1123 : tensor<1xui32>
    %1125 = mhlo.add %1116, %1124 : tensor<1xui32>
    %1126 = mhlo.constant dense<6> : tensor<ui32>
    %1127 = "mhlo.broadcast_in_dim"(%1126) {broadcast_dimensions = dense<> : tensor<0xi64>} : (tensor<ui32>) -> tensor<1xui32>
    %1128 = mhlo.shift_left %1124, %1127 : tensor<1xui32>
    %1129 = mhlo.constant dense<26> : tensor<ui32>
    %1130 = "mhlo.broadcast_in_dim"(%1129) {broadcast_dimensions = dense<> : tensor<0xi64>} : (tensor<ui32>) -> tensor<1xui32>
    %1131 = mhlo.shift_right_logical %1124, %1130 : tensor<1xui32>
    %1132 = mhlo.or %1128, %1131 : tensor<1xui32>
    %1133 = mhlo.xor %1125, %1132 : tensor<1xui32>
    %1134 = "mhlo.broadcast_in_dim"(%921) {broadcast_dimensions = dense<> : tensor<0xi64>} : (tensor<ui32>) -> tensor<1xui32>
    %1135 = mhlo.add %1125, %1134 : tensor<1xui32>
    %1136 = "mhlo.broadcast_in_dim"(%914) {broadcast_dimensions = dense<> : tensor<0xi64>} : (tensor<ui32>) -> tensor<1xui32>
    %1137 = mhlo.add %1133, %1136 : tensor<1xui32>
    %1138 = mhlo.constant dense<5> : tensor<ui32>
    %1139 = "mhlo.broadcast_in_dim"(%1138) {broadcast_dimensions = dense<> : tensor<0xi64>} : (tensor<ui32>) -> tensor<1xui32>
    %1140 = mhlo.add %1137, %1139 : tensor<1xui32>
    %1141 = "mhlo.concatenate"(%1135, %1140) {dimension = 0 : i64} : (tensor<1xui32>, tensor<1xui32>) -> tensor<2xui32>
    %1142 = "mhlo.reshape"(%1141) : (tensor<2xui32>) -> tensor<1x1x2xui32>
    %1143 = mhlo.constant dense<9> : tensor<ui32>
    %1144 = "mhlo.broadcast_in_dim"(%1143) {broadcast_dimensions = dense<> : tensor<0xi64>} : (tensor<ui32>) -> tensor<1x1x2xui32>
    %1145 = mhlo.shift_right_logical %1142, %1144 : tensor<1x1x2xui32>
    %1146 = mhlo.constant dense<1065353216> : tensor<ui32>
    %1147 = "mhlo.broadcast_in_dim"(%1146) {broadcast_dimensions = dense<> : tensor<0xi64>} : (tensor<ui32>) -> tensor<1x1x2xui32>
    %1148 = mhlo.or %1145, %1147 : tensor<1x1x2xui32>
    %1149 = "mhlo.bitcast_convert"(%1148) : (tensor<1x1x2xui32>) -> tensor<1x1x2xf32>
    %1150 = mhlo.constant dense<1.000000e+00> : tensor<f32>
    %1151 = "mhlo.broadcast_in_dim"(%1150) {broadcast_dimensions = dense<> : tensor<0xi64>} : (tensor<f32>) -> tensor<1x1x2xf32>
    %1152 = mhlo.subtract %1149, %1151 : tensor<1x1x2xf32>
    %1153 = mhlo.subtract %911, %909 : tensor<1x1x1xf32>
    %1154 = "mhlo.broadcast_in_dim"(%1153) {broadcast_dimensions = dense<[0, 1, 2]> : tensor<3xi64>} : (tensor<1x1x1xf32>) -> tensor<1x1x2xf32>
    %1155 = mhlo.multiply %1152, %1154 : tensor<1x1x2xf32>
    %1156 = "mhlo.broadcast_in_dim"(%909) {broadcast_dimensions = dense<[0, 1, 2]> : tensor<3xi64>} : (tensor<1x1x1xf32>) -> tensor<1x1x2xf32>
    %1157 = mhlo.add %1155, %1156 : tensor<1x1x2xf32>
    %1158 = "mhlo.broadcast_in_dim"(%909) {broadcast_dimensions = dense<[0, 1, 2]> : tensor<3xi64>} : (tensor<1x1x1xf32>) -> tensor<1x1x2xf32>
    %1159 = mhlo.maximum %1158, %1157 : tensor<1x1x2xf32>
    %1160 = call @jit__lstm.12$erf_inv(%1159) : (tensor<1x1x2xf32>) -> tensor<1x1x2xf32>
    %1161 = mhlo.constant dense<1.41421354> : tensor<f32>
    %1162 = "mhlo.broadcast_in_dim"(%1161) {broadcast_dimensions = dense<> : tensor<0xi64>} : (tensor<f32>) -> tensor<1x1x2xf32>
    %1163 = mhlo.multiply %1162, %1160 : tensor<1x1x2xf32>
    %1164 = call @jit__lstm.12$_einsum(%906, %1163) : (tensor<2x2xf32>, tensor<1x1x2xf32>) -> tensor<1x1x2xf32>
    %1165 = "mhlo.broadcast_in_dim"(%876) {broadcast_dimensions = dense<[1, 2]> : tensor<2xi64>} : (tensor<1x2xf32>) -> tensor<1x1x2xf32>
    %1166 = mhlo.add %1165, %1164 : tensor<1x1x2xf32>
    return %1166 : tensor<1x1x2xf32>
  }
  func.func private @jit__lstm.12$sigmoid(%arg0: tensor<1x64xf32>) -> tensor<1x64xf32> {
    %0 = mhlo.negate %arg0 : tensor<1x64xf32>
    %1 = mhlo.exponential %0 : tensor<1x64xf32>
    %2 = mhlo.constant dense<1.000000e+00> : tensor<f32>
    %3 = "mhlo.broadcast_in_dim"(%2) {broadcast_dimensions = dense<> : tensor<0xi64>} : (tensor<f32>) -> tensor<1x64xf32>
    %4 = mhlo.add %3, %1 : tensor<1x64xf32>
    %5 = mhlo.constant dense<1.000000e+00> : tensor<f32>
    %6 = "mhlo.broadcast_in_dim"(%5) {broadcast_dimensions = dense<> : tensor<0xi64>} : (tensor<f32>) -> tensor<1x64xf32>
    %7 = mhlo.divide %6, %4 : tensor<1x64xf32>
    return %7 : tensor<1x64xf32>
  }
  func.func private @jit__lstm.12$sigmoid_0(%arg0: tensor<1x64xf32>) -> tensor<1x64xf32> {
    %0 = mhlo.negate %arg0 : tensor<1x64xf32>
    %1 = mhlo.exponential %0 : tensor<1x64xf32>
    %2 = mhlo.constant dense<1.000000e+00> : tensor<f32>
    %3 = "mhlo.broadcast_in_dim"(%2) {broadcast_dimensions = dense<> : tensor<0xi64>} : (tensor<f32>) -> tensor<1x64xf32>
    %4 = mhlo.add %3, %1 : tensor<1x64xf32>
    %5 = mhlo.constant dense<1.000000e+00> : tensor<f32>
    %6 = "mhlo.broadcast_in_dim"(%5) {broadcast_dimensions = dense<> : tensor<0xi64>} : (tensor<f32>) -> tensor<1x64xf32>
    %7 = mhlo.divide %6, %4 : tensor<1x64xf32>
    return %7 : tensor<1x64xf32>
  }
  func.func private @jit__lstm.12$sigmoid_1(%arg0: tensor<1x64xf32>) -> tensor<1x64xf32> {
    %0 = mhlo.negate %arg0 : tensor<1x64xf32>
    %1 = mhlo.exponential %0 : tensor<1x64xf32>
    %2 = mhlo.constant dense<1.000000e+00> : tensor<f32>
    %3 = "mhlo.broadcast_in_dim"(%2) {broadcast_dimensions = dense<> : tensor<0xi64>} : (tensor<f32>) -> tensor<1x64xf32>
    %4 = mhlo.add %3, %1 : tensor<1x64xf32>
    %5 = mhlo.constant dense<1.000000e+00> : tensor<f32>
    %6 = "mhlo.broadcast_in_dim"(%5) {broadcast_dimensions = dense<> : tensor<0xi64>} : (tensor<f32>) -> tensor<1x64xf32>
    %7 = mhlo.divide %6, %4 : tensor<1x64xf32>
    return %7 : tensor<1x64xf32>
  }
  func.func private @jit__lstm.12$sigmoid_2(%arg0: tensor<1x64xf32>) -> tensor<1x64xf32> {
    %0 = mhlo.negate %arg0 : tensor<1x64xf32>
    %1 = mhlo.exponential %0 : tensor<1x64xf32>
    %2 = mhlo.constant dense<1.000000e+00> : tensor<f32>
    %3 = "mhlo.broadcast_in_dim"(%2) {broadcast_dimensions = dense<> : tensor<0xi64>} : (tensor<f32>) -> tensor<1x64xf32>
    %4 = mhlo.add %3, %1 : tensor<1x64xf32>
    %5 = mhlo.constant dense<1.000000e+00> : tensor<f32>
    %6 = "mhlo.broadcast_in_dim"(%5) {broadcast_dimensions = dense<> : tensor<0xi64>} : (tensor<f32>) -> tensor<1x64xf32>
    %7 = mhlo.divide %6, %4 : tensor<1x64xf32>
    return %7 : tensor<1x64xf32>
  }
  func.func private @jit__lstm.12$sigmoid_3(%arg0: tensor<1x64xf32>) -> tensor<1x64xf32> {
    %0 = mhlo.negate %arg0 : tensor<1x64xf32>
    %1 = mhlo.exponential %0 : tensor<1x64xf32>
    %2 = mhlo.constant dense<1.000000e+00> : tensor<f32>
    %3 = "mhlo.broadcast_in_dim"(%2) {broadcast_dimensions = dense<> : tensor<0xi64>} : (tensor<f32>) -> tensor<1x64xf32>
    %4 = mhlo.add %3, %1 : tensor<1x64xf32>
    %5 = mhlo.constant dense<1.000000e+00> : tensor<f32>
    %6 = "mhlo.broadcast_in_dim"(%5) {broadcast_dimensions = dense<> : tensor<0xi64>} : (tensor<f32>) -> tensor<1x64xf32>
    %7 = mhlo.divide %6, %4 : tensor<1x64xf32>
    return %7 : tensor<1x64xf32>
  }
  func.func private @jit__lstm.12$sigmoid_4(%arg0: tensor<1x64xf32>) -> tensor<1x64xf32> {
    %0 = mhlo.negate %arg0 : tensor<1x64xf32>
    %1 = mhlo.exponential %0 : tensor<1x64xf32>
    %2 = mhlo.constant dense<1.000000e+00> : tensor<f32>
    %3 = "mhlo.broadcast_in_dim"(%2) {broadcast_dimensions = dense<> : tensor<0xi64>} : (tensor<f32>) -> tensor<1x64xf32>
    %4 = mhlo.add %3, %1 : tensor<1x64xf32>
    %5 = mhlo.constant dense<1.000000e+00> : tensor<f32>
    %6 = "mhlo.broadcast_in_dim"(%5) {broadcast_dimensions = dense<> : tensor<0xi64>} : (tensor<f32>) -> tensor<1x64xf32>
    %7 = mhlo.divide %6, %4 : tensor<1x64xf32>
    return %7 : tensor<1x64xf32>
  }
  func.func private @jit__lstm.12$elu(%arg0: tensor<1x10xf32>) -> tensor<1x10xf32> {
    %0 = mhlo.constant dense<0.000000e+00> : tensor<f32>
    %1 = "mhlo.broadcast_in_dim"(%0) {broadcast_dimensions = dense<> : tensor<0xi64>} : (tensor<f32>) -> tensor<1x10xf32>
    %2 = "mhlo.compare"(%arg0, %1) {compare_type = #mhlo<comparison_type FLOAT>, comparison_direction = #mhlo<comparison_direction GT>} : (tensor<1x10xf32>, tensor<1x10xf32>) -> tensor<1x10xi1>
    %3 = mhlo.constant dense<0.000000e+00> : tensor<f32>
    %4 = call @jit__lstm.12$_where(%2, %3, %arg0) : (tensor<1x10xi1>, tensor<f32>, tensor<1x10xf32>) -> tensor<1x10xf32>
    %5 = mhlo.constant dense<0.000000e+00> : tensor<f32>
    %6 = "mhlo.broadcast_in_dim"(%5) {broadcast_dimensions = dense<> : tensor<0xi64>} : (tensor<f32>) -> tensor<1x10xf32>
    %7 = "mhlo.compare"(%arg0, %6) {compare_type = #mhlo<comparison_type FLOAT>, comparison_direction = #mhlo<comparison_direction GT>} : (tensor<1x10xf32>, tensor<1x10xf32>) -> tensor<1x10xi1>
    %8 = mhlo.exponential_minus_one %4 : tensor<1x10xf32>
    %9 = mhlo.constant dense<1.000000e+00> : tensor<f32>
    %10 = "mhlo.broadcast_in_dim"(%9) {broadcast_dimensions = dense<> : tensor<0xi64>} : (tensor<f32>) -> tensor<1x10xf32>
    %11 = mhlo.multiply %10, %8 : tensor<1x10xf32>
    %12 = call @jit__lstm.12$_where_5(%7, %arg0, %11) : (tensor<1x10xi1>, tensor<1x10xf32>, tensor<1x10xf32>) -> tensor<1x10xf32>
    return %12 : tensor<1x10xf32>
  }
  func.func private @jit__lstm.12$_where(%arg0: tensor<1x10xi1>, %arg1: tensor<f32>, %arg2: tensor<1x10xf32>) -> tensor<1x10xf32> {
    %0 = mhlo.convert %arg1 : tensor<f32>
    %1 = "mhlo.broadcast_in_dim"(%0) {broadcast_dimensions = dense<> : tensor<0xi64>} : (tensor<f32>) -> tensor<1x10xf32>
    %2 = "mhlo.select"(%arg0, %1, %arg2) : (tensor<1x10xi1>, tensor<1x10xf32>, tensor<1x10xf32>) -> tensor<1x10xf32>
    return %2 : tensor<1x10xf32>
  }
  func.func private @jit__lstm.12$_where_5(%arg0: tensor<1x10xi1>, %arg1: tensor<1x10xf32>, %arg2: tensor<1x10xf32>) -> tensor<1x10xf32> {
    %0 = "mhlo.select"(%arg0, %arg1, %arg2) : (tensor<1x10xi1>, tensor<1x10xf32>, tensor<1x10xf32>) -> tensor<1x10xf32>
    return %0 : tensor<1x10xf32>
  }
  func.func private @jit__lstm.12$clip(%arg0: tensor<i32>, %arg1: tensor<i32>, %arg2: tensor<i32>) -> tensor<i32> {
    %0 = mhlo.maximum %arg1, %arg0 : tensor<i32>
    %1 = mhlo.minimum %arg2, %0 : tensor<i32>
    return %1 : tensor<i32>
  }
  func.func private @jit__lstm.12$clip_6(%arg0: tensor<i32>, %arg1: tensor<i32>, %arg2: tensor<i32>) -> tensor<i32> {
    %0 = mhlo.maximum %arg1, %arg0 : tensor<i32>
    %1 = mhlo.minimum %arg2, %0 : tensor<i32>
    return %1 : tensor<i32>
  }
  func.func private @jit__lstm.12$clip_7(%arg0: tensor<i32>, %arg1: tensor<i32>, %arg2: tensor<i32>) -> tensor<i32> {
    %0 = mhlo.maximum %arg1, %arg0 : tensor<i32>
    %1 = mhlo.minimum %arg2, %0 : tensor<i32>
    return %1 : tensor<i32>
  }
  func.func private @jit__lstm.12$_take(%arg0: tensor<1x5xf32>, %arg1: tensor<i32>) -> tensor<5xf32> {
    %0 = mhlo.constant dense<0> : tensor<i32>
    %1 = "mhlo.compare"(%arg1, %0) {compare_type = #mhlo<comparison_type SIGNED>, comparison_direction = #mhlo<comparison_direction LT>} : (tensor<i32>, tensor<i32>) -> tensor<i1>
    %2 = mhlo.constant dense<1> : tensor<i32>
    %3 = mhlo.add %arg1, %2 : tensor<i32>
    %4 = call @jit__lstm.12$_where_8(%1, %3, %arg1) : (tensor<i1>, tensor<i32>, tensor<i32>) -> tensor<i32>
    %5 = "mhlo.broadcast_in_dim"(%4) {broadcast_dimensions = dense<> : tensor<0xi64>} : (tensor<i32>) -> tensor<1xi32>
    %6 = mhlo.constant dense<0> : tensor<1xi32>
    %7 = mhlo.constant dense<0> : tensor<1xi32>
    %8 = mhlo.constant dense<1> : tensor<i32>
    %9 = "mhlo.broadcast_in_dim"(%8) {broadcast_dimensions = dense<> : tensor<0xi64>} : (tensor<i32>) -> tensor<1xi32>
    %10 = mhlo.constant dense<5> : tensor<i32>
    %11 = "mhlo.broadcast_in_dim"(%10) {broadcast_dimensions = dense<> : tensor<0xi64>} : (tensor<i32>) -> tensor<1xi32>
    %12 = "mhlo.concatenate"(%9, %11) {dimension = 0 : i64} : (tensor<1xi32>, tensor<1xi32>) -> tensor<2xi32>
    %13 = mhlo.constant dense<0> : tensor<i32>
    %14 = "mhlo.broadcast_in_dim"(%13) {broadcast_dimensions = dense<> : tensor<0xi64>} : (tensor<i32>) -> tensor<1xi32>
    %15 = "mhlo.compare"(%6, %14) {compare_type = #mhlo<comparison_type SIGNED>, comparison_direction = #mhlo<comparison_direction LT>} : (tensor<1xi32>, tensor<1xi32>) -> tensor<1xi1>
    %16 = mhlo.constant dense<2> : tensor<i32>
    %17 = "mhlo.broadcast_in_dim"(%16) {broadcast_dimensions = dense<> : tensor<0xi64>} : (tensor<i32>) -> tensor<1xi32>
    %18 = mhlo.add %6, %17 : tensor<1xi32>
    %19 = "mhlo.select"(%15, %18, %6) : (tensor<1xi1>, tensor<1xi32>, tensor<1xi32>) -> tensor<1xi32>
    %20 = "mhlo.broadcast_in_dim"(%19) {broadcast_dimensions = dense<0> : tensor<1xi64>} : (tensor<1xi32>) -> tensor<1x1xi32>
    %21 = "mhlo.gather"(%12, %20) {dimension_numbers = #mhlo.gather<collapsed_slice_dims = [0], start_index_map = [0], index_vector_dim = 1>, indices_are_sorted = false, slice_sizes = dense<1> : tensor<1xi64>} : (tensor<2xi32>, tensor<1x1xi32>) -> tensor<1xi32>
    %22 = mhlo.constant dense<1> : tensor<i32>
    %23 = "mhlo.broadcast_in_dim"(%22) {broadcast_dimensions = dense<> : tensor<0xi64>} : (tensor<i32>) -> tensor<1xi32>
    %24 = mhlo.constant dense<5> : tensor<i32>
    %25 = "mhlo.broadcast_in_dim"(%24) {broadcast_dimensions = dense<> : tensor<0xi64>} : (tensor<i32>) -> tensor<1xi32>
    %26 = "mhlo.concatenate"(%23, %25) {dimension = 0 : i64} : (tensor<1xi32>, tensor<1xi32>) -> tensor<2xi32>
    %27 = mhlo.constant dense<0> : tensor<i32>
    %28 = "mhlo.broadcast_in_dim"(%27) {broadcast_dimensions = dense<> : tensor<0xi64>} : (tensor<i32>) -> tensor<1xi32>
    %29 = "mhlo.compare"(%7, %28) {compare_type = #mhlo<comparison_type SIGNED>, comparison_direction = #mhlo<comparison_direction LT>} : (tensor<1xi32>, tensor<1xi32>) -> tensor<1xi1>
    %30 = mhlo.constant dense<2> : tensor<i32>
    %31 = "mhlo.broadcast_in_dim"(%30) {broadcast_dimensions = dense<> : tensor<0xi64>} : (tensor<i32>) -> tensor<1xi32>
    %32 = mhlo.add %7, %31 : tensor<1xi32>
    %33 = "mhlo.select"(%29, %32, %7) : (tensor<1xi1>, tensor<1xi32>, tensor<1xi32>) -> tensor<1xi32>
    %34 = "mhlo.broadcast_in_dim"(%33) {broadcast_dimensions = dense<0> : tensor<1xi64>} : (tensor<1xi32>) -> tensor<1x1xi32>
    %35 = "mhlo.gather"(%26, %34) {dimension_numbers = #mhlo.gather<collapsed_slice_dims = [0], start_index_map = [0], index_vector_dim = 1>, indices_are_sorted = false, slice_sizes = dense<1> : tensor<1xi64>} : (tensor<2xi32>, tensor<1x1xi32>) -> tensor<1xi32>
    %36 = mhlo.subtract %21, %35 : tensor<1xi32>
    %37 = mhlo.constant dense<0> : tensor<i32>
    %38 = "mhlo.broadcast_in_dim"(%37) {broadcast_dimensions = dense<> : tensor<0xi64>} : (tensor<i32>) -> tensor<1xi32>
    %39 = "mhlo.compare"(%5, %38) {compare_type = #mhlo<comparison_type SIGNED>, comparison_direction = #mhlo<comparison_direction GE>} : (tensor<1xi32>, tensor<1xi32>) -> tensor<1xi1>
    %40 = "mhlo.compare"(%5, %36) {compare_type = #mhlo<comparison_type SIGNED>, comparison_direction = #mhlo<comparison_direction LE>} : (tensor<1xi32>, tensor<1xi32>) -> tensor<1xi1>
    %41 = mhlo.and %39, %40 : tensor<1xi1>
    %42 = mhlo.constant dense<true> : tensor<i1>
    %43 = mhlo.reduce(%41 init: %42) across dimensions = [0] : (tensor<1xi1>, tensor<i1>) -> tensor<i1>
     reducer(%arg2: tensor<i1>, %arg3: tensor<i1>)  {
      %49 = mhlo.and %arg2, %arg3 : tensor<i1>
      "mhlo.return"(%49) : (tensor<i1>) -> ()
    }
    %44 = "mhlo.gather"(%arg0, %5) {dimension_numbers = #mhlo.gather<offset_dims = [0], collapsed_slice_dims = [0], start_index_map = [0]>, indices_are_sorted = false, slice_sizes = dense<[1, 5]> : tensor<2xi64>} : (tensor<1x5xf32>, tensor<1xi32>) -> tensor<5xf32>
    %45 = "mhlo.broadcast_in_dim"(%43) {broadcast_dimensions = dense<> : tensor<0xi64>} : (tensor<i1>) -> tensor<5xi1>
    %46 = mhlo.constant dense<0x7FC00000> : tensor<f32>
    %47 = "mhlo.broadcast_in_dim"(%46) {broadcast_dimensions = dense<> : tensor<0xi64>} : (tensor<f32>) -> tensor<5xf32>
    %48 = "mhlo.select"(%45, %44, %47) : (tensor<5xi1>, tensor<5xf32>, tensor<5xf32>) -> tensor<5xf32>
    return %48 : tensor<5xf32>
  }
  func.func private @jit__lstm.12$_where_8(%arg0: tensor<i1>, %arg1: tensor<i32>, %arg2: tensor<i32>) -> tensor<i32> {
    %0 = "mhlo.select"(%arg0, %arg1, %arg2) : (tensor<i1>, tensor<i32>, tensor<i32>) -> tensor<i32>
    return %0 : tensor<i32>
  }
  func.func private @jit__lstm.12$tril(%arg0: tensor<2x2xf32>) -> tensor<2x2xf32> {
    %0 = "mhlo.iota"() {iota_dimension = 0 : i64} : () -> tensor<2x2xi32>
    %1 = mhlo.constant dense<0> : tensor<i32>
    %2 = "mhlo.broadcast_in_dim"(%1) {broadcast_dimensions = dense<> : tensor<0xi64>} : (tensor<i32>) -> tensor<2x2xi32>
    %3 = mhlo.add %0, %2 : tensor<2x2xi32>
    %4 = "mhlo.iota"() {iota_dimension = 1 : i64} : () -> tensor<2x2xi32>
    %5 = "mhlo.compare"(%3, %4) {compare_type = #mhlo<comparison_type SIGNED>, comparison_direction = #mhlo<comparison_direction GE>} : (tensor<2x2xi32>, tensor<2x2xi32>) -> tensor<2x2xi1>
    %6 = mhlo.constant dense<0.000000e+00> : tensor<f32>
    %7 = "mhlo.broadcast_in_dim"(%6) {broadcast_dimensions = dense<> : tensor<0xi64>} : (tensor<f32>) -> tensor<2x2xf32>
    %8 = "mhlo.select"(%5, %arg0, %7) : (tensor<2x2xi1>, tensor<2x2xf32>, tensor<2x2xf32>) -> tensor<2x2xf32>
    return %8 : tensor<2x2xf32>
  }
  func.func private @jit__lstm.12$erf_inv(%arg0: tensor<1x1x2xf32>) -> tensor<1x1x2xf32> {
    %0 = call @jit__lstm.12$xla_fallback_erf_inv(%arg0) : (tensor<1x1x2xf32>) -> tensor<1x1x2xf32>
    return %0 : tensor<1x1x2xf32>
  }
  func.func private @jit__lstm.12$xla_fallback_erf_inv(%arg0: tensor<1x1x2xf32>) -> tensor<1x1x2xf32> {
    %0 = mhlo.abs %arg0 : tensor<1x1x2xf32>
    %1 = mhlo.constant dense<1.000000e+00> : tensor<f32>
    %2 = "mhlo.broadcast_in_dim"(%1) {broadcast_dimensions = dense<> : tensor<0xi64>} : (tensor<f32>) -> tensor<1x1x2xf32>
    %3 = "mhlo.compare"(%0, %2) {comparison_direction = #mhlo<comparison_direction EQ>} : (tensor<1x1x2xf32>, tensor<1x1x2xf32>) -> tensor<1x1x2xi1>
    %4 = mhlo.constant dense<0x7F800000> : tensor<f32>
    %5 = "mhlo.broadcast_in_dim"(%4) {broadcast_dimensions = dense<> : tensor<0xi64>} : (tensor<f32>) -> tensor<1x1x2xf32>
    %6 = mhlo.multiply %arg0, %5 : tensor<1x1x2xf32>
    %7 = mhlo.negate %arg0 : tensor<1x1x2xf32>
    %8 = mhlo.multiply %7, %arg0 : tensor<1x1x2xf32>
    %9 = mhlo.log_plus_one %8 : tensor<1x1x2xf32>
    %10 = mhlo.negate %9 : tensor<1x1x2xf32>
    %11 = mhlo.constant dense<5.000000e+00> : tensor<f32>
    %12 = "mhlo.broadcast_in_dim"(%11) {broadcast_dimensions = dense<> : tensor<0xi64>} : (tensor<f32>) -> tensor<1x1x2xf32>
    %13 = "mhlo.compare"(%10, %12) {comparison_direction = #mhlo<comparison_direction LT>} : (tensor<1x1x2xf32>, tensor<1x1x2xf32>) -> tensor<1x1x2xi1>
    %14 = mhlo.constant dense<1.50140941> : tensor<f32>
    %15 = "mhlo.broadcast_in_dim"(%14) {broadcast_dimensions = dense<> : tensor<0xi64>} : (tensor<f32>) -> tensor<1x1x2xf32>
    %16 = mhlo.constant dense<2.83297682> : tensor<f32>
    %17 = "mhlo.broadcast_in_dim"(%16) {broadcast_dimensions = dense<> : tensor<0xi64>} : (tensor<f32>) -> tensor<1x1x2xf32>
    %18 = "mhlo.select"(%13, %15, %17) : (tensor<1x1x2xi1>, tensor<1x1x2xf32>, tensor<1x1x2xf32>) -> tensor<1x1x2xf32>
    %19 = mhlo.constant dense<0.246640727> : tensor<f32>
    %20 = "mhlo.broadcast_in_dim"(%19) {broadcast_dimensions = dense<> : tensor<0xi64>} : (tensor<f32>) -> tensor<1x1x2xf32>
    %21 = mhlo.constant dense<1.00167406> : tensor<f32>
    %22 = "mhlo.broadcast_in_dim"(%21) {broadcast_dimensions = dense<> : tensor<0xi64>} : (tensor<f32>) -> tensor<1x1x2xf32>
    %23 = "mhlo.select"(%13, %20, %22) : (tensor<1x1x2xi1>, tensor<1x1x2xf32>, tensor<1x1x2xf32>) -> tensor<1x1x2xf32>
    %24 = mhlo.constant dense<-0.00417768164> : tensor<f32>
    %25 = "mhlo.broadcast_in_dim"(%24) {broadcast_dimensions = dense<> : tensor<0xi64>} : (tensor<f32>) -> tensor<1x1x2xf32>
    %26 = mhlo.constant dense<0.00943887047> : tensor<f32>
    %27 = "mhlo.broadcast_in_dim"(%26) {broadcast_dimensions = dense<> : tensor<0xi64>} : (tensor<f32>) -> tensor<1x1x2xf32>
    %28 = "mhlo.select"(%13, %25, %27) : (tensor<1x1x2xi1>, tensor<1x1x2xf32>, tensor<1x1x2xf32>) -> tensor<1x1x2xf32>
    %29 = mhlo.constant dense<-0.00125372503> : tensor<f32>
    %30 = "mhlo.broadcast_in_dim"(%29) {broadcast_dimensions = dense<> : tensor<0xi64>} : (tensor<f32>) -> tensor<1x1x2xf32>
    %31 = mhlo.constant dense<-0.0076224613> : tensor<f32>
    %32 = "mhlo.broadcast_in_dim"(%31) {broadcast_dimensions = dense<> : tensor<0xi64>} : (tensor<f32>) -> tensor<1x1x2xf32>
    %33 = "mhlo.select"(%13, %30, %32) : (tensor<1x1x2xi1>, tensor<1x1x2xf32>, tensor<1x1x2xf32>) -> tensor<1x1x2xf32>
    %34 = mhlo.constant dense<2.1858087E-4> : tensor<f32>
    %35 = "mhlo.broadcast_in_dim"(%34) {broadcast_dimensions = dense<> : tensor<0xi64>} : (tensor<f32>) -> tensor<1x1x2xf32>
    %36 = mhlo.constant dense<0.00573950773> : tensor<f32>
    %37 = "mhlo.broadcast_in_dim"(%36) {broadcast_dimensions = dense<> : tensor<0xi64>} : (tensor<f32>) -> tensor<1x1x2xf32>
    %38 = "mhlo.select"(%13, %35, %37) : (tensor<1x1x2xi1>, tensor<1x1x2xf32>, tensor<1x1x2xf32>) -> tensor<1x1x2xf32>
    %39 = mhlo.constant dense<-4.39150654E-6> : tensor<f32>
    %40 = "mhlo.broadcast_in_dim"(%39) {broadcast_dimensions = dense<> : tensor<0xi64>} : (tensor<f32>) -> tensor<1x1x2xf32>
    %41 = mhlo.constant dense<-0.00367342844> : tensor<f32>
    %42 = "mhlo.broadcast_in_dim"(%41) {broadcast_dimensions = dense<> : tensor<0xi64>} : (tensor<f32>) -> tensor<1x1x2xf32>
    %43 = "mhlo.select"(%13, %40, %42) : (tensor<1x1x2xi1>, tensor<1x1x2xf32>, tensor<1x1x2xf32>) -> tensor<1x1x2xf32>
    %44 = mhlo.constant dense<-3.5233877E-6> : tensor<f32>
    %45 = "mhlo.broadcast_in_dim"(%44) {broadcast_dimensions = dense<> : tensor<0xi64>} : (tensor<f32>) -> tensor<1x1x2xf32>
    %46 = mhlo.constant dense<0.00134934322> : tensor<f32>
    %47 = "mhlo.broadcast_in_dim"(%46) {broadcast_dimensions = dense<> : tensor<0xi64>} : (tensor<f32>) -> tensor<1x1x2xf32>
    %48 = "mhlo.select"(%13, %45, %47) : (tensor<1x1x2xi1>, tensor<1x1x2xf32>, tensor<1x1x2xf32>) -> tensor<1x1x2xf32>
    %49 = mhlo.constant dense<3.43273939E-7> : tensor<f32>
    %50 = "mhlo.broadcast_in_dim"(%49) {broadcast_dimensions = dense<> : tensor<0xi64>} : (tensor<f32>) -> tensor<1x1x2xf32>
    %51 = mhlo.constant dense<1.00950558E-4> : tensor<f32>
    %52 = "mhlo.broadcast_in_dim"(%51) {broadcast_dimensions = dense<> : tensor<0xi64>} : (tensor<f32>) -> tensor<1x1x2xf32>
    %53 = "mhlo.select"(%13, %50, %52) : (tensor<1x1x2xi1>, tensor<1x1x2xf32>, tensor<1x1x2xf32>) -> tensor<1x1x2xf32>
    %54 = mhlo.constant dense<2.81022636E-8> : tensor<f32>
    %55 = "mhlo.broadcast_in_dim"(%54) {broadcast_dimensions = dense<> : tensor<0xi64>} : (tensor<f32>) -> tensor<1x1x2xf32>
    %56 = mhlo.constant dense<-2.00214257E-4> : tensor<f32>
    %57 = "mhlo.broadcast_in_dim"(%56) {broadcast_dimensions = dense<> : tensor<0xi64>} : (tensor<f32>) -> tensor<1x1x2xf32>
    %58 = "mhlo.select"(%13, %55, %57) : (tensor<1x1x2xi1>, tensor<1x1x2xf32>, tensor<1x1x2xf32>) -> tensor<1x1x2xf32>
    %59 = mhlo.constant dense<2.500000e+00> : tensor<f32>
    %60 = "mhlo.broadcast_in_dim"(%59) {broadcast_dimensions = dense<> : tensor<0xi64>} : (tensor<f32>) -> tensor<1x1x2xf32>
    %61 = mhlo.subtract %10, %60 : tensor<1x1x2xf32>
    %62 = mhlo.sqrt %10 : tensor<1x1x2xf32>
    %63 = mhlo.constant dense<3.000000e+00> : tensor<f32>
    %64 = "mhlo.broadcast_in_dim"(%63) {broadcast_dimensions = dense<> : tensor<0xi64>} : (tensor<f32>) -> tensor<1x1x2xf32>
    %65 = mhlo.subtract %62, %64 : tensor<1x1x2xf32>
    %66 = "mhlo.select"(%13, %61, %65) : (tensor<1x1x2xi1>, tensor<1x1x2xf32>, tensor<1x1x2xf32>) -> tensor<1x1x2xf32>
    %67 = mhlo.multiply %58, %66 : tensor<1x1x2xf32>
    %68 = mhlo.add %53, %67 : tensor<1x1x2xf32>
    %69 = mhlo.multiply %68, %66 : tensor<1x1x2xf32>
    %70 = mhlo.add %48, %69 : tensor<1x1x2xf32>
    %71 = mhlo.multiply %70, %66 : tensor<1x1x2xf32>
    %72 = mhlo.add %43, %71 : tensor<1x1x2xf32>
    %73 = mhlo.multiply %72, %66 : tensor<1x1x2xf32>
    %74 = mhlo.add %38, %73 : tensor<1x1x2xf32>
    %75 = mhlo.multiply %74, %66 : tensor<1x1x2xf32>
    %76 = mhlo.add %33, %75 : tensor<1x1x2xf32>
    %77 = mhlo.multiply %76, %66 : tensor<1x1x2xf32>
    %78 = mhlo.add %28, %77 : tensor<1x1x2xf32>
    %79 = mhlo.multiply %78, %66 : tensor<1x1x2xf32>
    %80 = mhlo.add %23, %79 : tensor<1x1x2xf32>
    %81 = mhlo.multiply %80, %66 : tensor<1x1x2xf32>
    %82 = mhlo.add %18, %81 : tensor<1x1x2xf32>
    %83 = mhlo.multiply %82, %arg0 : tensor<1x1x2xf32>
    %84 = "mhlo.select"(%3, %6, %83) : (tensor<1x1x2xi1>, tensor<1x1x2xf32>, tensor<1x1x2xf32>) -> tensor<1x1x2xf32>
    return %84 : tensor<1x1x2xf32>
  }
  func.func private @jit__lstm.12$_einsum(%arg0: tensor<2x2xf32>, %arg1: tensor<1x1x2xf32>) -> tensor<1x1x2xf32> {
    %0 = "mhlo.dot_general"(%arg1, %arg0) {dot_dimension_numbers = #mhlo.dot<lhs_contracting_dimensions = [2], rhs_contracting_dimensions = [1]>, precision_config = [#mhlo<precision DEFAULT>, #mhlo<precision DEFAULT>]} : (tensor<1x1x2xf32>, tensor<2x2xf32>) -> tensor<1x1x2xf32>
    return %0 : tensor<1x1x2xf32>
  }
}

